node {
  name: "Placeholder"
  op: "Placeholder"
  attr {
    key: "dtype"
    value {
      type: DT_FLOAT
    }
  }
  attr {
    key: "shape"
    value {
      shape {
        dim {
          size: -1
        }
        dim {
          size: -1
        }
        dim {
          size: -1
        }
        dim {
          size: 3
        }
      }
    }
  }
}
node {
  name: "img_mean"
  op: "Const"
  attr {
    key: "dtype"
    value {
      type: DT_FLOAT
    }
  }
  attr {
    key: "value"
    value {
      tensor {
        dtype: DT_FLOAT
        tensor_shape {
          dim {
            size: 1
          }
          dim {
            size: 1
          }
          dim {
            size: 1
          }
          dim {
            size: 3
          }
        }
        tensor_content: ")\\\367B\331\216\351B\305\340\317B"
      }
    }
  }
}
node {
  name: "sub"
  op: "Sub"
  input: "Placeholder"
  input: "img_mean"
  attr {
    key: "T"
    value {
      type: DT_FLOAT
    }
  }
}
node {
  name: "Const"
  op: "Const"
  attr {
    key: "dtype"
    value {
      type: DT_FLOAT
    }
  }
  attr {
    key: "value"
    value {
      tensor {
        dtype: DT_FLOAT
        tensor_shape {
          dim {
            size: 1
          }
          dim {
            size: 1
          }
          dim {
            size: 3
          }
        }
        tensor_content: "{\224iB\341zdB\000\200eB"
      }
    }
  }
}
node {
  name: "truediv"
  op: "RealDiv"
  input: "sub"
  input: "Const"
  attr {
    key: "T"
    value {
      type: DT_FLOAT
    }
  }
}
node {
  name: "efficientnet/efficientnet-b0/stem/conv2d/kernel/Initializer/random_normal/shape"
  op: "Const"
  attr {
    key: "_class"
    value {
      list {
        s: "loc:@efficientnet/efficientnet-b0/stem/conv2d/kernel"
      }
    }
  }
  attr {
    key: "dtype"
    value {
      type: DT_INT32
    }
  }
  attr {
    key: "value"
    value {
      tensor {
        dtype: DT_INT32
        tensor_shape {
          dim {
            size: 4
          }
        }
        tensor_content: "\003\000\000\000\003\000\000\000\003\000\000\000 \000\000\000"
      }
    }
  }
}
node {
  name: "efficientnet/efficientnet-b0/stem/conv2d/kernel/Initializer/random_normal/mean"
  op: "Const"
  attr {
    key: "_class"
    value {
      list {
        s: "loc:@efficientnet/efficientnet-b0/stem/conv2d/kernel"
      }
    }
  }
  attr {
    key: "dtype"
    value {
      type: DT_FLOAT
    }
  }
  attr {
    key: "value"
    value {
      tensor {
        dtype: DT_FLOAT
        tensor_shape {
        }
        float_val: 0.0
      }
    }
  }
}
node {
  name: "efficientnet/efficientnet-b0/stem/conv2d/kernel/Initializer/random_normal/stddev"
  op: "Const"
  attr {
    key: "_class"
    value {
      list {
        s: "loc:@efficientnet/efficientnet-b0/stem/conv2d/kernel"
      }
    }
  }
  attr {
    key: "dtype"
    value {
      type: DT_FLOAT
    }
  }
  attr {
    key: "value"
    value {
      tensor {
        dtype: DT_FLOAT
        tensor_shape {
        }
        float_val: 0.0833333358168602
      }
    }
  }
}
node {
  name: "efficientnet/efficientnet-b0/stem/conv2d/kernel/Initializer/random_normal/RandomStandardNormal"
  op: "RandomStandardNormal"
  input: "efficientnet/efficientnet-b0/stem/conv2d/kernel/Initializer/random_normal/shape"
  attr {
    key: "T"
    value {
      type: DT_INT32
    }
  }
  attr {
    key: "_class"
    value {
      list {
        s: "loc:@efficientnet/efficientnet-b0/stem/conv2d/kernel"
      }
    }
  }
  attr {
    key: "dtype"
    value {
      type: DT_FLOAT
    }
  }
  attr {
    key: "seed"
    value {
      i: 0
    }
  }
  attr {
    key: "seed2"
    value {
      i: 0
    }
  }
}
node {
  name: "efficientnet/efficientnet-b0/stem/conv2d/kernel/Initializer/random_normal/mul"
  op: "Mul"
  input: "efficientnet/efficientnet-b0/stem/conv2d/kernel/Initializer/random_normal/RandomStandardNormal"
  input: "efficientnet/efficientnet-b0/stem/conv2d/kernel/Initializer/random_normal/stddev"
  attr {
    key: "T"
    value {
      type: DT_FLOAT
    }
  }
  attr {
    key: "_class"
    value {
      list {
        s: "loc:@efficientnet/efficientnet-b0/stem/conv2d/kernel"
      }
    }
  }
}
node {
  name: "efficientnet/efficientnet-b0/stem/conv2d/kernel/Initializer/random_normal"
  op: "AddV2"
  input: "efficientnet/efficientnet-b0/stem/conv2d/kernel/Initializer/random_normal/mul"
  input: "efficientnet/efficientnet-b0/stem/conv2d/kernel/Initializer/random_normal/mean"
  attr {
    key: "T"
    value {
      type: DT_FLOAT
    }
  }
  attr {
    key: "_class"
    value {
      list {
        s: "loc:@efficientnet/efficientnet-b0/stem/conv2d/kernel"
      }
    }
  }
}
node {
  name: "efficientnet/efficientnet-b0/stem/conv2d/kernel"
  op: "VarHandleOp"
  attr {
    key: "_class"
    value {
      list {
        s: "loc:@efficientnet/efficientnet-b0/stem/conv2d/kernel"
      }
    }
  }
  attr {
    key: "allowed_devices"
    value {
      list {
      }
    }
  }
  attr {
    key: "container"
    value {
      s: ""
    }
  }
  attr {
    key: "dtype"
    value {
      type: DT_FLOAT
    }
  }
  attr {
    key: "shape"
    value {
      shape {
        dim {
          size: 3
        }
        dim {
          size: 3
        }
        dim {
          size: 3
        }
        dim {
          size: 32
        }
      }
    }
  }
  attr {
    key: "shared_name"
    value {
      s: "efficientnet/efficientnet-b0/stem/conv2d/kernel"
    }
  }
}
node {
  name: "efficientnet/efficientnet-b0/stem/conv2d/kernel/IsInitialized/VarIsInitializedOp"
  op: "VarIsInitializedOp"
  input: "efficientnet/efficientnet-b0/stem/conv2d/kernel"
}
node {
  name: "efficientnet/efficientnet-b0/stem/conv2d/kernel/Assign"
  op: "AssignVariableOp"
  input: "efficientnet/efficientnet-b0/stem/conv2d/kernel"
  input: "efficientnet/efficientnet-b0/stem/conv2d/kernel/Initializer/random_normal"
  attr {
    key: "dtype"
    value {
      type: DT_FLOAT
    }
  }
}
node {
  name: "efficientnet/efficientnet-b0/stem/conv2d/kernel/Read/ReadVariableOp"
  op: "ReadVariableOp"
  input: "efficientnet/efficientnet-b0/stem/conv2d/kernel"
  attr {
    key: "dtype"
    value {
      type: DT_FLOAT
    }
  }
}
node {
  name: "efficientnet/efficientnet-b0/model/stem/conv2d/Conv2D/ReadVariableOp"
  op: "ReadVariableOp"
  input: "efficientnet/efficientnet-b0/stem/conv2d/kernel"
  attr {
    key: "dtype"
    value {
      type: DT_FLOAT
    }
  }
}
node {
  name: "efficientnet/efficientnet-b0/model/stem/conv2d/Conv2D"
  op: "Conv2D"
  input: "truediv"
  input: "efficientnet/efficientnet-b0/model/stem/conv2d/Conv2D/ReadVariableOp"
  attr {
    key: "T"
    value {
      type: DT_FLOAT
    }
  }
  attr {
    key: "data_format"
    value {
      s: "NHWC"
    }
  }
  attr {
    key: "dilations"
    value {
      list {
        i: 1
        i: 1
        i: 1
        i: 1
      }
    }
  }
  attr {
    key: "explicit_paddings"
    value {
      list {
      }
    }
  }
  attr {
    key: "padding"
    value {
      s: "SAME"
    }
  }
  attr {
    key: "strides"
    value {
      list {
        i: 1
        i: 2
        i: 2
        i: 1
      }
    }
  }
  attr {
    key: "use_cudnn_on_gpu"
    value {
      b: true
    }
  }
}
node {
  name: "efficientnet/efficientnet-b0/stem/tpu_batch_normalization/gamma/Initializer/ones"
  op: "Const"
  attr {
    key: "_class"
    value {
      list {
        s: "loc:@efficientnet/efficientnet-b0/stem/tpu_batch_normalization/gamma"
      }
    }
  }
  attr {
    key: "dtype"
    value {
      type: DT_FLOAT
    }
  }
  attr {
    key: "value"
    value {
      tensor {
        dtype: DT_FLOAT
        tensor_shape {
          dim {
            size: 32
          }
        }
        float_val: 1.0
      }
    }
  }
}
node {
  name: "efficientnet/efficientnet-b0/stem/tpu_batch_normalization/gamma"
  op: "VarHandleOp"
  attr {
    key: "_class"
    value {
      list {
        s: "loc:@efficientnet/efficientnet-b0/stem/tpu_batch_normalization/gamma"
      }
    }
  }
  attr {
    key: "allowed_devices"
    value {
      list {
      }
    }
  }
  attr {
    key: "container"
    value {
      s: ""
    }
  }
  attr {
    key: "dtype"
    value {
      type: DT_FLOAT
    }
  }
  attr {
    key: "shape"
    value {
      shape {
        dim {
          size: 32
        }
      }
    }
  }
  attr {
    key: "shared_name"
    value {
      s: "efficientnet/efficientnet-b0/stem/tpu_batch_normalization/gamma"
    }
  }
}
node {
  name: "efficientnet/efficientnet-b0/stem/tpu_batch_normalization/gamma/IsInitialized/VarIsInitializedOp"
  op: "VarIsInitializedOp"
  input: "efficientnet/efficientnet-b0/stem/tpu_batch_normalization/gamma"
}
node {
  name: "efficientnet/efficientnet-b0/stem/tpu_batch_normalization/gamma/Assign"
  op: "AssignVariableOp"
  input: "efficientnet/efficientnet-b0/stem/tpu_batch_normalization/gamma"
  input: "efficientnet/efficientnet-b0/stem/tpu_batch_normalization/gamma/Initializer/ones"
  attr {
    key: "dtype"
    value {
      type: DT_FLOAT
    }
  }
}
node {
  name: "efficientnet/efficientnet-b0/stem/tpu_batch_normalization/gamma/Read/ReadVariableOp"
  op: "ReadVariableOp"
  input: "efficientnet/efficientnet-b0/stem/tpu_batch_normalization/gamma"
  attr {
    key: "dtype"
    value {
      type: DT_FLOAT
    }
  }
}
node {
  name: "efficientnet/efficientnet-b0/stem/tpu_batch_normalization/beta/Initializer/zeros"
  op: "Const"
  attr {
    key: "_class"
    value {
      list {
        s: "loc:@efficientnet/efficientnet-b0/stem/tpu_batch_normalization/beta"
      }
    }
  }
  attr {
    key: "dtype"
    value {
      type: DT_FLOAT
    }
  }
  attr {
    key: "value"
    value {
      tensor {
        dtype: DT_FLOAT
        tensor_shape {
          dim {
            size: 32
          }
        }
        float_val: 0.0
      }
    }
  }
}
node {
  name: "efficientnet/efficientnet-b0/stem/tpu_batch_normalization/beta"
  op: "VarHandleOp"
  attr {
    key: "_class"
    value {
      list {
        s: "loc:@efficientnet/efficientnet-b0/stem/tpu_batch_normalization/beta"
      }
    }
  }
  attr {
    key: "allowed_devices"
    value {
      list {
      }
    }
  }
  attr {
    key: "container"
    value {
      s: ""
    }
  }
  attr {
    key: "dtype"
    value {
      type: DT_FLOAT
    }
  }
  attr {
    key: "shape"
    value {
      shape {
        dim {
          size: 32
        }
      }
    }
  }
  attr {
    key: "shared_name"
    value {
      s: "efficientnet/efficientnet-b0/stem/tpu_batch_normalization/beta"
    }
  }
}
node {
  name: "efficientnet/efficientnet-b0/stem/tpu_batch_normalization/beta/IsInitialized/VarIsInitializedOp"
  op: "VarIsInitializedOp"
  input: "efficientnet/efficientnet-b0/stem/tpu_batch_normalization/beta"
}
node {
  name: "efficientnet/efficientnet-b0/stem/tpu_batch_normalization/beta/Assign"
  op: "AssignVariableOp"
  input: "efficientnet/efficientnet-b0/stem/tpu_batch_normalization/beta"
  input: "efficientnet/efficientnet-b0/stem/tpu_batch_normalization/beta/Initializer/zeros"
  attr {
    key: "dtype"
    value {
      type: DT_FLOAT
    }
  }
}
node {
  name: "efficientnet/efficientnet-b0/stem/tpu_batch_normalization/beta/Read/ReadVariableOp"
  op: "ReadVariableOp"
  input: "efficientnet/efficientnet-b0/stem/tpu_batch_normalization/beta"
  attr {
    key: "dtype"
    value {
      type: DT_FLOAT
    }
  }
}
node {
  name: "efficientnet/efficientnet-b0/stem/tpu_batch_normalization/moving_mean/Initializer/zeros"
  op: "Const"
  attr {
    key: "_class"
    value {
      list {
        s: "loc:@efficientnet/efficientnet-b0/stem/tpu_batch_normalization/moving_mean"
      }
    }
  }
  attr {
    key: "dtype"
    value {
      type: DT_FLOAT
    }
  }
  attr {
    key: "value"
    value {
      tensor {
        dtype: DT_FLOAT
        tensor_shape {
          dim {
            size: 32
          }
        }
        float_val: 0.0
      }
    }
  }
}
node {
  name: "efficientnet/efficientnet-b0/stem/tpu_batch_normalization/moving_mean"
  op: "VarHandleOp"
  attr {
    key: "_class"
    value {
      list {
        s: "loc:@efficientnet/efficientnet-b0/stem/tpu_batch_normalization/moving_mean"
      }
    }
  }
  attr {
    key: "allowed_devices"
    value {
      list {
      }
    }
  }
  attr {
    key: "container"
    value {
      s: ""
    }
  }
  attr {
    key: "dtype"
    value {
      type: DT_FLOAT
    }
  }
  attr {
    key: "shape"
    value {
      shape {
        dim {
          size: 32
        }
      }
    }
  }
  attr {
    key: "shared_name"
    value {
      s: "efficientnet/efficientnet-b0/stem/tpu_batch_normalization/moving_mean"
    }
  }
}
node {
  name: "efficientnet/efficientnet-b0/stem/tpu_batch_normalization/moving_mean/IsInitialized/VarIsInitializedOp"
  op: "VarIsInitializedOp"
  input: "efficientnet/efficientnet-b0/stem/tpu_batch_normalization/moving_mean"
}
node {
  name: "efficientnet/efficientnet-b0/stem/tpu_batch_normalization/moving_mean/Assign"
  op: "AssignVariableOp"
  input: "efficientnet/efficientnet-b0/stem/tpu_batch_normalization/moving_mean"
  input: "efficientnet/efficientnet-b0/stem/tpu_batch_normalization/moving_mean/Initializer/zeros"
  attr {
    key: "dtype"
    value {
      type: DT_FLOAT
    }
  }
}
node {
  name: "efficientnet/efficientnet-b0/stem/tpu_batch_normalization/moving_mean/Read/ReadVariableOp"
  op: "ReadVariableOp"
  input: "efficientnet/efficientnet-b0/stem/tpu_batch_normalization/moving_mean"
  attr {
    key: "dtype"
    value {
      type: DT_FLOAT
    }
  }
}
node {
  name: "efficientnet/efficientnet-b0/stem/tpu_batch_normalization/moving_variance/Initializer/ones"
  op: "Const"
  attr {
    key: "_class"
    value {
      list {
        s: "loc:@efficientnet/efficientnet-b0/stem/tpu_batch_normalization/moving_variance"
      }
    }
  }
  attr {
    key: "dtype"
    value {
      type: DT_FLOAT
    }
  }
  attr {
    key: "value"
    value {
      tensor {
        dtype: DT_FLOAT
        tensor_shape {
          dim {
            size: 32
          }
        }
        float_val: 1.0
      }
    }
  }
}
node {
  name: "efficientnet/efficientnet-b0/stem/tpu_batch_normalization/moving_variance"
  op: "VarHandleOp"
  attr {
    key: "_class"
    value {
      list {
        s: "loc:@efficientnet/efficientnet-b0/stem/tpu_batch_normalization/moving_variance"
      }
    }
  }
  attr {
    key: "allowed_devices"
    value {
      list {
      }
    }
  }
  attr {
    key: "container"
    value {
      s: ""
    }
  }
  attr {
    key: "dtype"
    value {
      type: DT_FLOAT
    }
  }
  attr {
    key: "shape"
    value {
      shape {
        dim {
          size: 32
        }
      }
    }
  }
  attr {
    key: "shared_name"
    value {
      s: "efficientnet/efficientnet-b0/stem/tpu_batch_normalization/moving_variance"
    }
  }
}
node {
  name: "efficientnet/efficientnet-b0/stem/tpu_batch_normalization/moving_variance/IsInitialized/VarIsInitializedOp"
  op: "VarIsInitializedOp"
  input: "efficientnet/efficientnet-b0/stem/tpu_batch_normalization/moving_variance"
}
node {
  name: "efficientnet/efficientnet-b0/stem/tpu_batch_normalization/moving_variance/Assign"
  op: "AssignVariableOp"
  input: "efficientnet/efficientnet-b0/stem/tpu_batch_normalization/moving_variance"
  input: "efficientnet/efficientnet-b0/stem/tpu_batch_normalization/moving_variance/Initializer/ones"
  attr {
    key: "dtype"
    value {
      type: DT_FLOAT
    }
  }
}
node {
  name: "efficientnet/efficientnet-b0/stem/tpu_batch_normalization/moving_variance/Read/ReadVariableOp"
  op: "ReadVariableOp"
  input: "efficientnet/efficientnet-b0/stem/tpu_batch_normalization/moving_variance"
  attr {
    key: "dtype"
    value {
      type: DT_FLOAT
    }
  }
}
node {
  name: "efficientnet/efficientnet-b0/model/stem/tpu_batch_normalization/ReadVariableOp"
  op: "ReadVariableOp"
  input: "efficientnet/efficientnet-b0/stem/tpu_batch_normalization/gamma"
  attr {
    key: "dtype"
    value {
      type: DT_FLOAT
    }
  }
}
node {
  name: "efficientnet/efficientnet-b0/model/stem/tpu_batch_normalization/ReadVariableOp_1"
  op: "ReadVariableOp"
  input: "efficientnet/efficientnet-b0/stem/tpu_batch_normalization/beta"
  attr {
    key: "dtype"
    value {
      type: DT_FLOAT
    }
  }
}
node {
  name: "efficientnet/efficientnet-b0/model/stem/tpu_batch_normalization/FusedBatchNormV3/ReadVariableOp"
  op: "ReadVariableOp"
  input: "efficientnet/efficientnet-b0/stem/tpu_batch_normalization/moving_mean"
  attr {
    key: "dtype"
    value {
      type: DT_FLOAT
    }
  }
}
node {
  name: "efficientnet/efficientnet-b0/model/stem/tpu_batch_normalization/FusedBatchNormV3/ReadVariableOp_1"
  op: "ReadVariableOp"
  input: "efficientnet/efficientnet-b0/stem/tpu_batch_normalization/moving_variance"
  attr {
    key: "dtype"
    value {
      type: DT_FLOAT
    }
  }
}
node {
  name: "efficientnet/efficientnet-b0/model/stem/tpu_batch_normalization/FusedBatchNormV3"
  op: "FusedBatchNormV3"
  input: "efficientnet/efficientnet-b0/model/stem/conv2d/Conv2D"
  input: "efficientnet/efficientnet-b0/model/stem/tpu_batch_normalization/ReadVariableOp"
  input: "efficientnet/efficientnet-b0/model/stem/tpu_batch_normalization/ReadVariableOp_1"
  input: "efficientnet/efficientnet-b0/model/stem/tpu_batch_normalization/FusedBatchNormV3/ReadVariableOp"
  input: "efficientnet/efficientnet-b0/model/stem/tpu_batch_normalization/FusedBatchNormV3/ReadVariableOp_1"
  attr {
    key: "T"
    value {
      type: DT_FLOAT
    }
  }
  attr {
    key: "U"
    value {
      type: DT_FLOAT
    }
  }
  attr {
    key: "data_format"
    value {
      s: "NHWC"
    }
  }
  attr {
    key: "epsilon"
    value {
      f: 0.0010000000474974513
    }
  }
  attr {
    key: "exponential_avg_factor"
    value {
      f: 1.0
    }
  }
  attr {
    key: "is_training"
    value {
      b: false
    }
  }
}
node {
  name: "efficientnet/efficientnet-b0/model/stem/Sigmoid"
  op: "Sigmoid"
  input: "efficientnet/efficientnet-b0/model/stem/tpu_batch_normalization/FusedBatchNormV3"
  attr {
    key: "T"
    value {
      type: DT_FLOAT
    }
  }
}
node {
  name: "efficientnet/efficientnet-b0/model/stem/mul"
  op: "Mul"
  input: "efficientnet/efficientnet-b0/model/stem/tpu_batch_normalization/FusedBatchNormV3"
  input: "efficientnet/efficientnet-b0/model/stem/Sigmoid"
  attr {
    key: "T"
    value {
      type: DT_FLOAT
    }
  }
}
node {
  name: "efficientnet/efficientnet-b0/model/stem/Identity"
  op: "Identity"
  input: "efficientnet/efficientnet-b0/model/stem/mul"
  attr {
    key: "T"
    value {
      type: DT_FLOAT
    }
  }
}
node {
  name: "efficientnet/efficientnet-b0/model/stem/IdentityN"
  op: "IdentityN"
  input: "efficientnet/efficientnet-b0/model/stem/mul"
  input: "efficientnet/efficientnet-b0/model/stem/tpu_batch_normalization/FusedBatchNormV3"
  attr {
    key: "T"
    value {
      list {
        type: DT_FLOAT
        type: DT_FLOAT
      }
    }
  }
  attr {
    key: "_gradient_op_type"
    value {
      s: "CustomGradient-37298"
    }
  }
}
node {
  name: "efficientnet/efficientnet-b0/blocks_0/depthwise_conv2d/depthwise_kernel/Initializer/random_normal/shape"
  op: "Const"
  attr {
    key: "_class"
    value {
      list {
        s: "loc:@efficientnet/efficientnet-b0/blocks_0/depthwise_conv2d/depthwise_kernel"
      }
    }
  }
  attr {
    key: "dtype"
    value {
      type: DT_INT32
    }
  }
  attr {
    key: "value"
    value {
      tensor {
        dtype: DT_INT32
        tensor_shape {
          dim {
            size: 4
          }
        }
        tensor_content: "\003\000\000\000\003\000\000\000 \000\000\000\001\000\000\000"
      }
    }
  }
}
node {
  name: "efficientnet/efficientnet-b0/blocks_0/depthwise_conv2d/depthwise_kernel/Initializer/random_normal/mean"
  op: "Const"
  attr {
    key: "_class"
    value {
      list {
        s: "loc:@efficientnet/efficientnet-b0/blocks_0/depthwise_conv2d/depthwise_kernel"
      }
    }
  }
  attr {
    key: "dtype"
    value {
      type: DT_FLOAT
    }
  }
  attr {
    key: "value"
    value {
      tensor {
        dtype: DT_FLOAT
        tensor_shape {
        }
        float_val: 0.0
      }
    }
  }
}
node {
  name: "efficientnet/efficientnet-b0/blocks_0/depthwise_conv2d/depthwise_kernel/Initializer/random_normal/stddev"
  op: "Const"
  attr {
    key: "_class"
    value {
      list {
        s: "loc:@efficientnet/efficientnet-b0/blocks_0/depthwise_conv2d/depthwise_kernel"
      }
    }
  }
  attr {
    key: "dtype"
    value {
      type: DT_FLOAT
    }
  }
  attr {
    key: "value"
    value {
      tensor {
        dtype: DT_FLOAT
        tensor_shape {
        }
        float_val: 0.4714045226573944
      }
    }
  }
}
node {
  name: "efficientnet/efficientnet-b0/blocks_0/depthwise_conv2d/depthwise_kernel/Initializer/random_normal/RandomStandardNormal"
  op: "RandomStandardNormal"
  input: "efficientnet/efficientnet-b0/blocks_0/depthwise_conv2d/depthwise_kernel/Initializer/random_normal/shape"
  attr {
    key: "T"
    value {
      type: DT_INT32
    }
  }
  attr {
    key: "_class"
    value {
      list {
        s: "loc:@efficientnet/efficientnet-b0/blocks_0/depthwise_conv2d/depthwise_kernel"
      }
    }
  }
  attr {
    key: "dtype"
    value {
      type: DT_FLOAT
    }
  }
  attr {
    key: "seed"
    value {
      i: 0
    }
  }
  attr {
    key: "seed2"
    value {
      i: 0
    }
  }
}
node {
  name: "efficientnet/efficientnet-b0/blocks_0/depthwise_conv2d/depthwise_kernel/Initializer/random_normal/mul"
  op: "Mul"
  input: "efficientnet/efficientnet-b0/blocks_0/depthwise_conv2d/depthwise_kernel/Initializer/random_normal/RandomStandardNormal"
  input: "efficientnet/efficientnet-b0/blocks_0/depthwise_conv2d/depthwise_kernel/Initializer/random_normal/stddev"
  attr {
    key: "T"
    value {
      type: DT_FLOAT
    }
  }
  attr {
    key: "_class"
    value {
      list {
        s: "loc:@efficientnet/efficientnet-b0/blocks_0/depthwise_conv2d/depthwise_kernel"
      }
    }
  }
}
node {
  name: "efficientnet/efficientnet-b0/blocks_0/depthwise_conv2d/depthwise_kernel/Initializer/random_normal"
  op: "AddV2"
  input: "efficientnet/efficientnet-b0/blocks_0/depthwise_conv2d/depthwise_kernel/Initializer/random_normal/mul"
  input: "efficientnet/efficientnet-b0/blocks_0/depthwise_conv2d/depthwise_kernel/Initializer/random_normal/mean"
  attr {
    key: "T"
    value {
      type: DT_FLOAT
    }
  }
  attr {
    key: "_class"
    value {
      list {
        s: "loc:@efficientnet/efficientnet-b0/blocks_0/depthwise_conv2d/depthwise_kernel"
      }
    }
  }
}
node {
  name: "efficientnet/efficientnet-b0/blocks_0/depthwise_conv2d/depthwise_kernel"
  op: "VarHandleOp"
  attr {
    key: "_class"
    value {
      list {
        s: "loc:@efficientnet/efficientnet-b0/blocks_0/depthwise_conv2d/depthwise_kernel"
      }
    }
  }
  attr {
    key: "allowed_devices"
    value {
      list {
      }
    }
  }
  attr {
    key: "container"
    value {
      s: ""
    }
  }
  attr {
    key: "dtype"
    value {
      type: DT_FLOAT
    }
  }
  attr {
    key: "shape"
    value {
      shape {
        dim {
          size: 3
        }
        dim {
          size: 3
        }
        dim {
          size: 32
        }
        dim {
          size: 1
        }
      }
    }
  }
  attr {
    key: "shared_name"
    value {
      s: "efficientnet/efficientnet-b0/blocks_0/depthwise_conv2d/depthwise_kernel"
    }
  }
}
node {
  name: "efficientnet/efficientnet-b0/blocks_0/depthwise_conv2d/depthwise_kernel/IsInitialized/VarIsInitializedOp"
  op: "VarIsInitializedOp"
  input: "efficientnet/efficientnet-b0/blocks_0/depthwise_conv2d/depthwise_kernel"
}
node {
  name: "efficientnet/efficientnet-b0/blocks_0/depthwise_conv2d/depthwise_kernel/Assign"
  op: "AssignVariableOp"
  input: "efficientnet/efficientnet-b0/blocks_0/depthwise_conv2d/depthwise_kernel"
  input: "efficientnet/efficientnet-b0/blocks_0/depthwise_conv2d/depthwise_kernel/Initializer/random_normal"
  attr {
    key: "dtype"
    value {
      type: DT_FLOAT
    }
  }
}
node {
  name: "efficientnet/efficientnet-b0/blocks_0/depthwise_conv2d/depthwise_kernel/Read/ReadVariableOp"
  op: "ReadVariableOp"
  input: "efficientnet/efficientnet-b0/blocks_0/depthwise_conv2d/depthwise_kernel"
  attr {
    key: "dtype"
    value {
      type: DT_FLOAT
    }
  }
}
node {
  name: "efficientnet/efficientnet-b0/model/blocks_0/depthwise_conv2d/depthwise/ReadVariableOp"
  op: "ReadVariableOp"
  input: "efficientnet/efficientnet-b0/blocks_0/depthwise_conv2d/depthwise_kernel"
  attr {
    key: "dtype"
    value {
      type: DT_FLOAT
    }
  }
}
node {
  name: "efficientnet/efficientnet-b0/model/blocks_0/depthwise_conv2d/depthwise/Shape"
  op: "Const"
  attr {
    key: "dtype"
    value {
      type: DT_INT32
    }
  }
  attr {
    key: "value"
    value {
      tensor {
        dtype: DT_INT32
        tensor_shape {
          dim {
            size: 4
          }
        }
        tensor_content: "\003\000\000\000\003\000\000\000 \000\000\000\001\000\000\000"
      }
    }
  }
}
node {
  name: "efficientnet/efficientnet-b0/model/blocks_0/depthwise_conv2d/depthwise/dilation_rate"
  op: "Const"
  attr {
    key: "dtype"
    value {
      type: DT_INT32
    }
  }
  attr {
    key: "value"
    value {
      tensor {
        dtype: DT_INT32
        tensor_shape {
          dim {
            size: 2
          }
        }
        tensor_content: "\001\000\000\000\001\000\000\000"
      }
    }
  }
}
node {
  name: "efficientnet/efficientnet-b0/model/blocks_0/depthwise_conv2d/depthwise"
  op: "DepthwiseConv2dNative"
  input: "efficientnet/efficientnet-b0/model/stem/IdentityN"
  input: "efficientnet/efficientnet-b0/model/blocks_0/depthwise_conv2d/depthwise/ReadVariableOp"
  attr {
    key: "T"
    value {
      type: DT_FLOAT
    }
  }
  attr {
    key: "data_format"
    value {
      s: "NHWC"
    }
  }
  attr {
    key: "dilations"
    value {
      list {
        i: 1
        i: 1
        i: 1
        i: 1
      }
    }
  }
  attr {
    key: "explicit_paddings"
    value {
      list {
      }
    }
  }
  attr {
    key: "padding"
    value {
      s: "SAME"
    }
  }
  attr {
    key: "strides"
    value {
      list {
        i: 1
        i: 1
        i: 1
        i: 1
      }
    }
  }
}
node {
  name: "efficientnet/efficientnet-b0/blocks_0/tpu_batch_normalization/gamma/Initializer/ones"
  op: "Const"
  attr {
    key: "_class"
    value {
      list {
        s: "loc:@efficientnet/efficientnet-b0/blocks_0/tpu_batch_normalization/gamma"
      }
    }
  }
  attr {
    key: "dtype"
    value {
      type: DT_FLOAT
    }
  }
  attr {
    key: "value"
    value {
      tensor {
        dtype: DT_FLOAT
        tensor_shape {
          dim {
            size: 32
          }
        }
        float_val: 1.0
      }
    }
  }
}
node {
  name: "efficientnet/efficientnet-b0/blocks_0/tpu_batch_normalization/gamma"
  op: "VarHandleOp"
  attr {
    key: "_class"
    value {
      list {
        s: "loc:@efficientnet/efficientnet-b0/blocks_0/tpu_batch_normalization/gamma"
      }
    }
  }
  attr {
    key: "allowed_devices"
    value {
      list {
      }
    }
  }
  attr {
    key: "container"
    value {
      s: ""
    }
  }
  attr {
    key: "dtype"
    value {
      type: DT_FLOAT
    }
  }
  attr {
    key: "shape"
    value {
      shape {
        dim {
          size: 32
        }
      }
    }
  }
  attr {
    key: "shared_name"
    value {
      s: "efficientnet/efficientnet-b0/blocks_0/tpu_batch_normalization/gamma"
    }
  }
}
node {
  name: "efficientnet/efficientnet-b0/blocks_0/tpu_batch_normalization/gamma/IsInitialized/VarIsInitializedOp"
  op: "VarIsInitializedOp"
  input: "efficientnet/efficientnet-b0/blocks_0/tpu_batch_normalization/gamma"
}
node {
  name: "efficientnet/efficientnet-b0/blocks_0/tpu_batch_normalization/gamma/Assign"
  op: "AssignVariableOp"
  input: "efficientnet/efficientnet-b0/blocks_0/tpu_batch_normalization/gamma"
  input: "efficientnet/efficientnet-b0/blocks_0/tpu_batch_normalization/gamma/Initializer/ones"
  attr {
    key: "dtype"
    value {
      type: DT_FLOAT
    }
  }
}
node {
  name: "efficientnet/efficientnet-b0/blocks_0/tpu_batch_normalization/gamma/Read/ReadVariableOp"
  op: "ReadVariableOp"
  input: "efficientnet/efficientnet-b0/blocks_0/tpu_batch_normalization/gamma"
  attr {
    key: "dtype"
    value {
      type: DT_FLOAT
    }
  }
}
node {
  name: "efficientnet/efficientnet-b0/blocks_0/tpu_batch_normalization/beta/Initializer/zeros"
  op: "Const"
  attr {
    key: "_class"
    value {
      list {
        s: "loc:@efficientnet/efficientnet-b0/blocks_0/tpu_batch_normalization/beta"
      }
    }
  }
  attr {
    key: "dtype"
    value {
      type: DT_FLOAT
    }
  }
  attr {
    key: "value"
    value {
      tensor {
        dtype: DT_FLOAT
        tensor_shape {
          dim {
            size: 32
          }
        }
        float_val: 0.0
      }
    }
  }
}
node {
  name: "efficientnet/efficientnet-b0/blocks_0/tpu_batch_normalization/beta"
  op: "VarHandleOp"
  attr {
    key: "_class"
    value {
      list {
        s: "loc:@efficientnet/efficientnet-b0/blocks_0/tpu_batch_normalization/beta"
      }
    }
  }
  attr {
    key: "allowed_devices"
    value {
      list {
      }
    }
  }
  attr {
    key: "container"
    value {
      s: ""
    }
  }
  attr {
    key: "dtype"
    value {
      type: DT_FLOAT
    }
  }
  attr {
    key: "shape"
    value {
      shape {
        dim {
          size: 32
        }
      }
    }
  }
  attr {
    key: "shared_name"
    value {
      s: "efficientnet/efficientnet-b0/blocks_0/tpu_batch_normalization/beta"
    }
  }
}
node {
  name: "efficientnet/efficientnet-b0/blocks_0/tpu_batch_normalization/beta/IsInitialized/VarIsInitializedOp"
  op: "VarIsInitializedOp"
  input: "efficientnet/efficientnet-b0/blocks_0/tpu_batch_normalization/beta"
}
node {
  name: "efficientnet/efficientnet-b0/blocks_0/tpu_batch_normalization/beta/Assign"
  op: "AssignVariableOp"
  input: "efficientnet/efficientnet-b0/blocks_0/tpu_batch_normalization/beta"
  input: "efficientnet/efficientnet-b0/blocks_0/tpu_batch_normalization/beta/Initializer/zeros"
  attr {
    key: "dtype"
    value {
      type: DT_FLOAT
    }
  }
}
node {
  name: "efficientnet/efficientnet-b0/blocks_0/tpu_batch_normalization/beta/Read/ReadVariableOp"
  op: "ReadVariableOp"
  input: "efficientnet/efficientnet-b0/blocks_0/tpu_batch_normalization/beta"
  attr {
    key: "dtype"
    value {
      type: DT_FLOAT
    }
  }
}
node {
  name: "efficientnet/efficientnet-b0/blocks_0/tpu_batch_normalization/moving_mean/Initializer/zeros"
  op: "Const"
  attr {
    key: "_class"
    value {
      list {
        s: "loc:@efficientnet/efficientnet-b0/blocks_0/tpu_batch_normalization/moving_mean"
      }
    }
  }
  attr {
    key: "dtype"
    value {
      type: DT_FLOAT
    }
  }
  attr {
    key: "value"
    value {
      tensor {
        dtype: DT_FLOAT
        tensor_shape {
          dim {
            size: 32
          }
        }
        float_val: 0.0
      }
    }
  }
}
node {
  name: "efficientnet/efficientnet-b0/blocks_0/tpu_batch_normalization/moving_mean"
  op: "VarHandleOp"
  attr {
    key: "_class"
    value {
      list {
        s: "loc:@efficientnet/efficientnet-b0/blocks_0/tpu_batch_normalization/moving_mean"
      }
    }
  }
  attr {
    key: "allowed_devices"
    value {
      list {
      }
    }
  }
  attr {
    key: "container"
    value {
      s: ""
    }
  }
  attr {
    key: "dtype"
    value {
      type: DT_FLOAT
    }
  }
  attr {
    key: "shape"
    value {
      shape {
        dim {
          size: 32
        }
      }
    }
  }
  attr {
    key: "shared_name"
    value {
      s: "efficientnet/efficientnet-b0/blocks_0/tpu_batch_normalization/moving_mean"
    }
  }
}
node {
  name: "efficientnet/efficientnet-b0/blocks_0/tpu_batch_normalization/moving_mean/IsInitialized/VarIsInitializedOp"
  op: "VarIsInitializedOp"
  input: "efficientnet/efficientnet-b0/blocks_0/tpu_batch_normalization/moving_mean"
}
node {
  name: "efficientnet/efficientnet-b0/blocks_0/tpu_batch_normalization/moving_mean/Assign"
  op: "AssignVariableOp"
  input: "efficientnet/efficientnet-b0/blocks_0/tpu_batch_normalization/moving_mean"
  input: "efficientnet/efficientnet-b0/blocks_0/tpu_batch_normalization/moving_mean/Initializer/zeros"
  attr {
    key: "dtype"
    value {
      type: DT_FLOAT
    }
  }
}
node {
  name: "efficientnet/efficientnet-b0/blocks_0/tpu_batch_normalization/moving_mean/Read/ReadVariableOp"
  op: "ReadVariableOp"
  input: "efficientnet/efficientnet-b0/blocks_0/tpu_batch_normalization/moving_mean"
  attr {
    key: "dtype"
    value {
      type: DT_FLOAT
    }
  }
}
node {
  name: "efficientnet/efficientnet-b0/blocks_0/tpu_batch_normalization/moving_variance/Initializer/ones"
  op: "Const"
  attr {
    key: "_class"
    value {
      list {
        s: "loc:@efficientnet/efficientnet-b0/blocks_0/tpu_batch_normalization/moving_variance"
      }
    }
  }
  attr {
    key: "dtype"
    value {
      type: DT_FLOAT
    }
  }
  attr {
    key: "value"
    value {
      tensor {
        dtype: DT_FLOAT
        tensor_shape {
          dim {
            size: 32
          }
        }
        float_val: 1.0
      }
    }
  }
}
node {
  name: "efficientnet/efficientnet-b0/blocks_0/tpu_batch_normalization/moving_variance"
  op: "VarHandleOp"
  attr {
    key: "_class"
    value {
      list {
        s: "loc:@efficientnet/efficientnet-b0/blocks_0/tpu_batch_normalization/moving_variance"
      }
    }
  }
  attr {
    key: "allowed_devices"
    value {
      list {
      }
    }
  }
  attr {
    key: "container"
    value {
      s: ""
    }
  }
  attr {
    key: "dtype"
    value {
      type: DT_FLOAT
    }
  }
  attr {
    key: "shape"
    value {
      shape {
        dim {
          size: 32
        }
      }
    }
  }
  attr {
    key: "shared_name"
    value {
      s: "efficientnet/efficientnet-b0/blocks_0/tpu_batch_normalization/moving_variance"
    }
  }
}
node {
  name: "efficientnet/efficientnet-b0/blocks_0/tpu_batch_normalization/moving_variance/IsInitialized/VarIsInitializedOp"
  op: "VarIsInitializedOp"
  input: "efficientnet/efficientnet-b0/blocks_0/tpu_batch_normalization/moving_variance"
}
node {
  name: "efficientnet/efficientnet-b0/blocks_0/tpu_batch_normalization/moving_variance/Assign"
  op: "AssignVariableOp"
  input: "efficientnet/efficientnet-b0/blocks_0/tpu_batch_normalization/moving_variance"
  input: "efficientnet/efficientnet-b0/blocks_0/tpu_batch_normalization/moving_variance/Initializer/ones"
  attr {
    key: "dtype"
    value {
      type: DT_FLOAT
    }
  }
}
node {
  name: "efficientnet/efficientnet-b0/blocks_0/tpu_batch_normalization/moving_variance/Read/ReadVariableOp"
  op: "ReadVariableOp"
  input: "efficientnet/efficientnet-b0/blocks_0/tpu_batch_normalization/moving_variance"
  attr {
    key: "dtype"
    value {
      type: DT_FLOAT
    }
  }
}
node {
  name: "efficientnet/efficientnet-b0/model/blocks_0/tpu_batch_normalization/ReadVariableOp"
  op: "ReadVariableOp"
  input: "efficientnet/efficientnet-b0/blocks_0/tpu_batch_normalization/gamma"
  attr {
    key: "dtype"
    value {
      type: DT_FLOAT
    }
  }
}
node {
  name: "efficientnet/efficientnet-b0/model/blocks_0/tpu_batch_normalization/ReadVariableOp_1"
  op: "ReadVariableOp"
  input: "efficientnet/efficientnet-b0/blocks_0/tpu_batch_normalization/beta"
  attr {
    key: "dtype"
    value {
      type: DT_FLOAT
    }
  }
}
node {
  name: "efficientnet/efficientnet-b0/model/blocks_0/tpu_batch_normalization/FusedBatchNormV3/ReadVariableOp"
  op: "ReadVariableOp"
  input: "efficientnet/efficientnet-b0/blocks_0/tpu_batch_normalization/moving_mean"
  attr {
    key: "dtype"
    value {
      type: DT_FLOAT
    }
  }
}
node {
  name: "efficientnet/efficientnet-b0/model/blocks_0/tpu_batch_normalization/FusedBatchNormV3/ReadVariableOp_1"
  op: "ReadVariableOp"
  input: "efficientnet/efficientnet-b0/blocks_0/tpu_batch_normalization/moving_variance"
  attr {
    key: "dtype"
    value {
      type: DT_FLOAT
    }
  }
}
node {
  name: "efficientnet/efficientnet-b0/model/blocks_0/tpu_batch_normalization/FusedBatchNormV3"
  op: "FusedBatchNormV3"
  input: "efficientnet/efficientnet-b0/model/blocks_0/depthwise_conv2d/depthwise"
  input: "efficientnet/efficientnet-b0/model/blocks_0/tpu_batch_normalization/ReadVariableOp"
  input: "efficientnet/efficientnet-b0/model/blocks_0/tpu_batch_normalization/ReadVariableOp_1"
  input: "efficientnet/efficientnet-b0/model/blocks_0/tpu_batch_normalization/FusedBatchNormV3/ReadVariableOp"
  input: "efficientnet/efficientnet-b0/model/blocks_0/tpu_batch_normalization/FusedBatchNormV3/ReadVariableOp_1"
  attr {
    key: "T"
    value {
      type: DT_FLOAT
    }
  }
  attr {
    key: "U"
    value {
      type: DT_FLOAT
    }
  }
  attr {
    key: "data_format"
    value {
      s: "NHWC"
    }
  }
  attr {
    key: "epsilon"
    value {
      f: 0.0010000000474974513
    }
  }
  attr {
    key: "exponential_avg_factor"
    value {
      f: 1.0
    }
  }
  attr {
    key: "is_training"
    value {
      b: false
    }
  }
}
node {
  name: "efficientnet/efficientnet-b0/model/blocks_0/Sigmoid"
  op: "Sigmoid"
  input: "efficientnet/efficientnet-b0/model/blocks_0/tpu_batch_normalization/FusedBatchNormV3"
  attr {
    key: "T"
    value {
      type: DT_FLOAT
    }
  }
}
node {
  name: "efficientnet/efficientnet-b0/model/blocks_0/mul"
  op: "Mul"
  input: "efficientnet/efficientnet-b0/model/blocks_0/tpu_batch_normalization/FusedBatchNormV3"
  input: "efficientnet/efficientnet-b0/model/blocks_0/Sigmoid"
  attr {
    key: "T"
    value {
      type: DT_FLOAT
    }
  }
}
node {
  name: "efficientnet/efficientnet-b0/model/blocks_0/Identity"
  op: "Identity"
  input: "efficientnet/efficientnet-b0/model/blocks_0/mul"
  attr {
    key: "T"
    value {
      type: DT_FLOAT
    }
  }
}
node {
  name: "efficientnet/efficientnet-b0/model/blocks_0/IdentityN"
  op: "IdentityN"
  input: "efficientnet/efficientnet-b0/model/blocks_0/mul"
  input: "efficientnet/efficientnet-b0/model/blocks_0/tpu_batch_normalization/FusedBatchNormV3"
  attr {
    key: "T"
    value {
      list {
        type: DT_FLOAT
        type: DT_FLOAT
      }
    }
  }
  attr {
    key: "_gradient_op_type"
    value {
      s: "CustomGradient-37343"
    }
  }
}
node {
  name: "efficientnet/efficientnet-b0/model/blocks_0/se/Mean/reduction_indices"
  op: "Const"
  attr {
    key: "dtype"
    value {
      type: DT_INT32
    }
  }
  attr {
    key: "value"
    value {
      tensor {
        dtype: DT_INT32
        tensor_shape {
          dim {
            size: 2
          }
        }
        tensor_content: "\001\000\000\000\002\000\000\000"
      }
    }
  }
}
node {
  name: "efficientnet/efficientnet-b0/model/blocks_0/se/Mean"
  op: "Mean"
  input: "efficientnet/efficientnet-b0/model/blocks_0/IdentityN"
  input: "efficientnet/efficientnet-b0/model/blocks_0/se/Mean/reduction_indices"
  attr {
    key: "T"
    value {
      type: DT_FLOAT
    }
  }
  attr {
    key: "Tidx"
    value {
      type: DT_INT32
    }
  }
  attr {
    key: "keep_dims"
    value {
      b: true
    }
  }
}
node {
  name: "efficientnet/efficientnet-b0/blocks_0/se/conv2d/kernel/Initializer/random_normal/shape"
  op: "Const"
  attr {
    key: "_class"
    value {
      list {
        s: "loc:@efficientnet/efficientnet-b0/blocks_0/se/conv2d/kernel"
      }
    }
  }
  attr {
    key: "dtype"
    value {
      type: DT_INT32
    }
  }
  attr {
    key: "value"
    value {
      tensor {
        dtype: DT_INT32
        tensor_shape {
          dim {
            size: 4
          }
        }
        tensor_content: "\001\000\000\000\001\000\000\000 \000\000\000\010\000\000\000"
      }
    }
  }
}
node {
  name: "efficientnet/efficientnet-b0/blocks_0/se/conv2d/kernel/Initializer/random_normal/mean"
  op: "Const"
  attr {
    key: "_class"
    value {
      list {
        s: "loc:@efficientnet/efficientnet-b0/blocks_0/se/conv2d/kernel"
      }
    }
  }
  attr {
    key: "dtype"
    value {
      type: DT_FLOAT
    }
  }
  attr {
    key: "value"
    value {
      tensor {
        dtype: DT_FLOAT
        tensor_shape {
        }
        float_val: 0.0
      }
    }
  }
}
node {
  name: "efficientnet/efficientnet-b0/blocks_0/se/conv2d/kernel/Initializer/random_normal/stddev"
  op: "Const"
  attr {
    key: "_class"
    value {
      list {
        s: "loc:@efficientnet/efficientnet-b0/blocks_0/se/conv2d/kernel"
      }
    }
  }
  attr {
    key: "dtype"
    value {
      type: DT_FLOAT
    }
  }
  attr {
    key: "value"
    value {
      tensor {
        dtype: DT_FLOAT
        tensor_shape {
        }
        float_val: 0.5
      }
    }
  }
}
node {
  name: "efficientnet/efficientnet-b0/blocks_0/se/conv2d/kernel/Initializer/random_normal/RandomStandardNormal"
  op: "RandomStandardNormal"
  input: "efficientnet/efficientnet-b0/blocks_0/se/conv2d/kernel/Initializer/random_normal/shape"
  attr {
    key: "T"
    value {
      type: DT_INT32
    }
  }
  attr {
    key: "_class"
    value {
      list {
        s: "loc:@efficientnet/efficientnet-b0/blocks_0/se/conv2d/kernel"
      }
    }
  }
  attr {
    key: "dtype"
    value {
      type: DT_FLOAT
    }
  }
  attr {
    key: "seed"
    value {
      i: 0
    }
  }
  attr {
    key: "seed2"
    value {
      i: 0
    }
  }
}
node {
  name: "efficientnet/efficientnet-b0/blocks_0/se/conv2d/kernel/Initializer/random_normal/mul"
  op: "Mul"
  input: "efficientnet/efficientnet-b0/blocks_0/se/conv2d/kernel/Initializer/random_normal/RandomStandardNormal"
  input: "efficientnet/efficientnet-b0/blocks_0/se/conv2d/kernel/Initializer/random_normal/stddev"
  attr {
    key: "T"
    value {
      type: DT_FLOAT
    }
  }
  attr {
    key: "_class"
    value {
      list {
        s: "loc:@efficientnet/efficientnet-b0/blocks_0/se/conv2d/kernel"
      }
    }
  }
}
node {
  name: "efficientnet/efficientnet-b0/blocks_0/se/conv2d/kernel/Initializer/random_normal"
  op: "AddV2"
  input: "efficientnet/efficientnet-b0/blocks_0/se/conv2d/kernel/Initializer/random_normal/mul"
  input: "efficientnet/efficientnet-b0/blocks_0/se/conv2d/kernel/Initializer/random_normal/mean"
  attr {
    key: "T"
    value {
      type: DT_FLOAT
    }
  }
  attr {
    key: "_class"
    value {
      list {
        s: "loc:@efficientnet/efficientnet-b0/blocks_0/se/conv2d/kernel"
      }
    }
  }
}
node {
  name: "efficientnet/efficientnet-b0/blocks_0/se/conv2d/kernel"
  op: "VarHandleOp"
  attr {
    key: "_class"
    value {
      list {
        s: "loc:@efficientnet/efficientnet-b0/blocks_0/se/conv2d/kernel"
      }
    }
  }
  attr {
    key: "allowed_devices"
    value {
      list {
      }
    }
  }
  attr {
    key: "container"
    value {
      s: ""
    }
  }
  attr {
    key: "dtype"
    value {
      type: DT_FLOAT
    }
  }
  attr {
    key: "shape"
    value {
      shape {
        dim {
          size: 1
        }
        dim {
          size: 1
        }
        dim {
          size: 32
        }
        dim {
          size: 8
        }
      }
    }
  }
  attr {
    key: "shared_name"
    value {
      s: "efficientnet/efficientnet-b0/blocks_0/se/conv2d/kernel"
    }
  }
}
node {
  name: "efficientnet/efficientnet-b0/blocks_0/se/conv2d/kernel/IsInitialized/VarIsInitializedOp"
  op: "VarIsInitializedOp"
  input: "efficientnet/efficientnet-b0/blocks_0/se/conv2d/kernel"
}
node {
  name: "efficientnet/efficientnet-b0/blocks_0/se/conv2d/kernel/Assign"
  op: "AssignVariableOp"
  input: "efficientnet/efficientnet-b0/blocks_0/se/conv2d/kernel"
  input: "efficientnet/efficientnet-b0/blocks_0/se/conv2d/kernel/Initializer/random_normal"
  attr {
    key: "dtype"
    value {
      type: DT_FLOAT
    }
  }
}
node {
  name: "efficientnet/efficientnet-b0/blocks_0/se/conv2d/kernel/Read/ReadVariableOp"
  op: "ReadVariableOp"
  input: "efficientnet/efficientnet-b0/blocks_0/se/conv2d/kernel"
  attr {
    key: "dtype"
    value {
      type: DT_FLOAT
    }
  }
}
node {
  name: "efficientnet/efficientnet-b0/blocks_0/se/conv2d/bias/Initializer/zeros"
  op: "Const"
  attr {
    key: "_class"
    value {
      list {
        s: "loc:@efficientnet/efficientnet-b0/blocks_0/se/conv2d/bias"
      }
    }
  }
  attr {
    key: "dtype"
    value {
      type: DT_FLOAT
    }
  }
  attr {
    key: "value"
    value {
      tensor {
        dtype: DT_FLOAT
        tensor_shape {
          dim {
            size: 8
          }
        }
        float_val: 0.0
      }
    }
  }
}
node {
  name: "efficientnet/efficientnet-b0/blocks_0/se/conv2d/bias"
  op: "VarHandleOp"
  attr {
    key: "_class"
    value {
      list {
        s: "loc:@efficientnet/efficientnet-b0/blocks_0/se/conv2d/bias"
      }
    }
  }
  attr {
    key: "allowed_devices"
    value {
      list {
      }
    }
  }
  attr {
    key: "container"
    value {
      s: ""
    }
  }
  attr {
    key: "dtype"
    value {
      type: DT_FLOAT
    }
  }
  attr {
    key: "shape"
    value {
      shape {
        dim {
          size: 8
        }
      }
    }
  }
  attr {
    key: "shared_name"
    value {
      s: "efficientnet/efficientnet-b0/blocks_0/se/conv2d/bias"
    }
  }
}
node {
  name: "efficientnet/efficientnet-b0/blocks_0/se/conv2d/bias/IsInitialized/VarIsInitializedOp"
  op: "VarIsInitializedOp"
  input: "efficientnet/efficientnet-b0/blocks_0/se/conv2d/bias"
}
node {
  name: "efficientnet/efficientnet-b0/blocks_0/se/conv2d/bias/Assign"
  op: "AssignVariableOp"
  input: "efficientnet/efficientnet-b0/blocks_0/se/conv2d/bias"
  input: "efficientnet/efficientnet-b0/blocks_0/se/conv2d/bias/Initializer/zeros"
  attr {
    key: "dtype"
    value {
      type: DT_FLOAT
    }
  }
}
node {
  name: "efficientnet/efficientnet-b0/blocks_0/se/conv2d/bias/Read/ReadVariableOp"
  op: "ReadVariableOp"
  input: "efficientnet/efficientnet-b0/blocks_0/se/conv2d/bias"
  attr {
    key: "dtype"
    value {
      type: DT_FLOAT
    }
  }
}
node {
  name: "efficientnet/efficientnet-b0/model/blocks_0/se/conv2d/Conv2D/ReadVariableOp"
  op: "ReadVariableOp"
  input: "efficientnet/efficientnet-b0/blocks_0/se/conv2d/kernel"
  attr {
    key: "dtype"
    value {
      type: DT_FLOAT
    }
  }
}
node {
  name: "efficientnet/efficientnet-b0/model/blocks_0/se/conv2d/Conv2D"
  op: "Conv2D"
  input: "efficientnet/efficientnet-b0/model/blocks_0/se/Mean"
  input: "efficientnet/efficientnet-b0/model/blocks_0/se/conv2d/Conv2D/ReadVariableOp"
  attr {
    key: "T"
    value {
      type: DT_FLOAT
    }
  }
  attr {
    key: "data_format"
    value {
      s: "NHWC"
    }
  }
  attr {
    key: "dilations"
    value {
      list {
        i: 1
        i: 1
        i: 1
        i: 1
      }
    }
  }
  attr {
    key: "explicit_paddings"
    value {
      list {
      }
    }
  }
  attr {
    key: "padding"
    value {
      s: "SAME"
    }
  }
  attr {
    key: "strides"
    value {
      list {
        i: 1
        i: 1
        i: 1
        i: 1
      }
    }
  }
  attr {
    key: "use_cudnn_on_gpu"
    value {
      b: true
    }
  }
}
node {
  name: "efficientnet/efficientnet-b0/model/blocks_0/se/conv2d/BiasAdd/ReadVariableOp"
  op: "ReadVariableOp"
  input: "efficientnet/efficientnet-b0/blocks_0/se/conv2d/bias"
  attr {
    key: "dtype"
    value {
      type: DT_FLOAT
    }
  }
}
node {
  name: "efficientnet/efficientnet-b0/model/blocks_0/se/conv2d/BiasAdd"
  op: "BiasAdd"
  input: "efficientnet/efficientnet-b0/model/blocks_0/se/conv2d/Conv2D"
  input: "efficientnet/efficientnet-b0/model/blocks_0/se/conv2d/BiasAdd/ReadVariableOp"
  attr {
    key: "T"
    value {
      type: DT_FLOAT
    }
  }
  attr {
    key: "data_format"
    value {
      s: "NHWC"
    }
  }
}
node {
  name: "efficientnet/efficientnet-b0/model/blocks_0/se/Sigmoid"
  op: "Sigmoid"
  input: "efficientnet/efficientnet-b0/model/blocks_0/se/conv2d/BiasAdd"
  attr {
    key: "T"
    value {
      type: DT_FLOAT
    }
  }
}
node {
  name: "efficientnet/efficientnet-b0/model/blocks_0/se/mul"
  op: "Mul"
  input: "efficientnet/efficientnet-b0/model/blocks_0/se/conv2d/BiasAdd"
  input: "efficientnet/efficientnet-b0/model/blocks_0/se/Sigmoid"
  attr {
    key: "T"
    value {
      type: DT_FLOAT
    }
  }
}
node {
  name: "efficientnet/efficientnet-b0/model/blocks_0/se/Identity"
  op: "Identity"
  input: "efficientnet/efficientnet-b0/model/blocks_0/se/mul"
  attr {
    key: "T"
    value {
      type: DT_FLOAT
    }
  }
}
node {
  name: "efficientnet/efficientnet-b0/model/blocks_0/se/IdentityN"
  op: "IdentityN"
  input: "efficientnet/efficientnet-b0/model/blocks_0/se/mul"
  input: "efficientnet/efficientnet-b0/model/blocks_0/se/conv2d/BiasAdd"
  attr {
    key: "T"
    value {
      list {
        type: DT_FLOAT
        type: DT_FLOAT
      }
    }
  }
  attr {
    key: "_gradient_op_type"
    value {
      s: "CustomGradient-37368"
    }
  }
}
node {
  name: "efficientnet/efficientnet-b0/blocks_0/se/conv2d_1/kernel/Initializer/random_normal/shape"
  op: "Const"
  attr {
    key: "_class"
    value {
      list {
        s: "loc:@efficientnet/efficientnet-b0/blocks_0/se/conv2d_1/kernel"
      }
    }
  }
  attr {
    key: "dtype"
    value {
      type: DT_INT32
    }
  }
  attr {
    key: "value"
    value {
      tensor {
        dtype: DT_INT32
        tensor_shape {
          dim {
            size: 4
          }
        }
        tensor_content: "\001\000\000\000\001\000\000\000\010\000\000\000 \000\000\000"
      }
    }
  }
}
node {
  name: "efficientnet/efficientnet-b0/blocks_0/se/conv2d_1/kernel/Initializer/random_normal/mean"
  op: "Const"
  attr {
    key: "_class"
    value {
      list {
        s: "loc:@efficientnet/efficientnet-b0/blocks_0/se/conv2d_1/kernel"
      }
    }
  }
  attr {
    key: "dtype"
    value {
      type: DT_FLOAT
    }
  }
  attr {
    key: "value"
    value {
      tensor {
        dtype: DT_FLOAT
        tensor_shape {
        }
        float_val: 0.0
      }
    }
  }
}
node {
  name: "efficientnet/efficientnet-b0/blocks_0/se/conv2d_1/kernel/Initializer/random_normal/stddev"
  op: "Const"
  attr {
    key: "_class"
    value {
      list {
        s: "loc:@efficientnet/efficientnet-b0/blocks_0/se/conv2d_1/kernel"
      }
    }
  }
  attr {
    key: "dtype"
    value {
      type: DT_FLOAT
    }
  }
  attr {
    key: "value"
    value {
      tensor {
        dtype: DT_FLOAT
        tensor_shape {
        }
        float_val: 0.25
      }
    }
  }
}
node {
  name: "efficientnet/efficientnet-b0/blocks_0/se/conv2d_1/kernel/Initializer/random_normal/RandomStandardNormal"
  op: "RandomStandardNormal"
  input: "efficientnet/efficientnet-b0/blocks_0/se/conv2d_1/kernel/Initializer/random_normal/shape"
  attr {
    key: "T"
    value {
      type: DT_INT32
    }
  }
  attr {
    key: "_class"
    value {
      list {
        s: "loc:@efficientnet/efficientnet-b0/blocks_0/se/conv2d_1/kernel"
      }
    }
  }
  attr {
    key: "dtype"
    value {
      type: DT_FLOAT
    }
  }
  attr {
    key: "seed"
    value {
      i: 0
    }
  }
  attr {
    key: "seed2"
    value {
      i: 0
    }
  }
}
node {
  name: "efficientnet/efficientnet-b0/blocks_0/se/conv2d_1/kernel/Initializer/random_normal/mul"
  op: "Mul"
  input: "efficientnet/efficientnet-b0/blocks_0/se/conv2d_1/kernel/Initializer/random_normal/RandomStandardNormal"
  input: "efficientnet/efficientnet-b0/blocks_0/se/conv2d_1/kernel/Initializer/random_normal/stddev"
  attr {
    key: "T"
    value {
      type: DT_FLOAT
    }
  }
  attr {
    key: "_class"
    value {
      list {
        s: "loc:@efficientnet/efficientnet-b0/blocks_0/se/conv2d_1/kernel"
      }
    }
  }
}
node {
  name: "efficientnet/efficientnet-b0/blocks_0/se/conv2d_1/kernel/Initializer/random_normal"
  op: "AddV2"
  input: "efficientnet/efficientnet-b0/blocks_0/se/conv2d_1/kernel/Initializer/random_normal/mul"
  input: "efficientnet/efficientnet-b0/blocks_0/se/conv2d_1/kernel/Initializer/random_normal/mean"
  attr {
    key: "T"
    value {
      type: DT_FLOAT
    }
  }
  attr {
    key: "_class"
    value {
      list {
        s: "loc:@efficientnet/efficientnet-b0/blocks_0/se/conv2d_1/kernel"
      }
    }
  }
}
node {
  name: "efficientnet/efficientnet-b0/blocks_0/se/conv2d_1/kernel"
  op: "VarHandleOp"
  attr {
    key: "_class"
    value {
      list {
        s: "loc:@efficientnet/efficientnet-b0/blocks_0/se/conv2d_1/kernel"
      }
    }
  }
  attr {
    key: "allowed_devices"
    value {
      list {
      }
    }
  }
  attr {
    key: "container"
    value {
      s: ""
    }
  }
  attr {
    key: "dtype"
    value {
      type: DT_FLOAT
    }
  }
  attr {
    key: "shape"
    value {
      shape {
        dim {
          size: 1
        }
        dim {
          size: 1
        }
        dim {
          size: 8
        }
        dim {
          size: 32
        }
      }
    }
  }
  attr {
    key: "shared_name"
    value {
      s: "efficientnet/efficientnet-b0/blocks_0/se/conv2d_1/kernel"
    }
  }
}
node {
  name: "efficientnet/efficientnet-b0/blocks_0/se/conv2d_1/kernel/IsInitialized/VarIsInitializedOp"
  op: "VarIsInitializedOp"
  input: "efficientnet/efficientnet-b0/blocks_0/se/conv2d_1/kernel"
}
node {
  name: "efficientnet/efficientnet-b0/blocks_0/se/conv2d_1/kernel/Assign"
  op: "AssignVariableOp"
  input: "efficientnet/efficientnet-b0/blocks_0/se/conv2d_1/kernel"
  input: "efficientnet/efficientnet-b0/blocks_0/se/conv2d_1/kernel/Initializer/random_normal"
  attr {
    key: "dtype"
    value {
      type: DT_FLOAT
    }
  }
}
node {
  name: "efficientnet/efficientnet-b0/blocks_0/se/conv2d_1/kernel/Read/ReadVariableOp"
  op: "ReadVariableOp"
  input: "efficientnet/efficientnet-b0/blocks_0/se/conv2d_1/kernel"
  attr {
    key: "dtype"
    value {
      type: DT_FLOAT
    }
  }
}
node {
  name: "efficientnet/efficientnet-b0/blocks_0/se/conv2d_1/bias/Initializer/zeros"
  op: "Const"
  attr {
    key: "_class"
    value {
      list {
        s: "loc:@efficientnet/efficientnet-b0/blocks_0/se/conv2d_1/bias"
      }
    }
  }
  attr {
    key: "dtype"
    value {
      type: DT_FLOAT
    }
  }
  attr {
    key: "value"
    value {
      tensor {
        dtype: DT_FLOAT
        tensor_shape {
          dim {
            size: 32
          }
        }
        float_val: 0.0
      }
    }
  }
}
node {
  name: "efficientnet/efficientnet-b0/blocks_0/se/conv2d_1/bias"
  op: "VarHandleOp"
  attr {
    key: "_class"
    value {
      list {
        s: "loc:@efficientnet/efficientnet-b0/blocks_0/se/conv2d_1/bias"
      }
    }
  }
  attr {
    key: "allowed_devices"
    value {
      list {
      }
    }
  }
  attr {
    key: "container"
    value {
      s: ""
    }
  }
  attr {
    key: "dtype"
    value {
      type: DT_FLOAT
    }
  }
  attr {
    key: "shape"
    value {
      shape {
        dim {
          size: 32
        }
      }
    }
  }
  attr {
    key: "shared_name"
    value {
      s: "efficientnet/efficientnet-b0/blocks_0/se/conv2d_1/bias"
    }
  }
}
node {
  name: "efficientnet/efficientnet-b0/blocks_0/se/conv2d_1/bias/IsInitialized/VarIsInitializedOp"
  op: "VarIsInitializedOp"
  input: "efficientnet/efficientnet-b0/blocks_0/se/conv2d_1/bias"
}
node {
  name: "efficientnet/efficientnet-b0/blocks_0/se/conv2d_1/bias/Assign"
  op: "AssignVariableOp"
  input: "efficientnet/efficientnet-b0/blocks_0/se/conv2d_1/bias"
  input: "efficientnet/efficientnet-b0/blocks_0/se/conv2d_1/bias/Initializer/zeros"
  attr {
    key: "dtype"
    value {
      type: DT_FLOAT
    }
  }
}
node {
  name: "efficientnet/efficientnet-b0/blocks_0/se/conv2d_1/bias/Read/ReadVariableOp"
  op: "ReadVariableOp"
  input: "efficientnet/efficientnet-b0/blocks_0/se/conv2d_1/bias"
  attr {
    key: "dtype"
    value {
      type: DT_FLOAT
    }
  }
}
node {
  name: "efficientnet/efficientnet-b0/model/blocks_0/se/conv2d_1/Conv2D/ReadVariableOp"
  op: "ReadVariableOp"
  input: "efficientnet/efficientnet-b0/blocks_0/se/conv2d_1/kernel"
  attr {
    key: "dtype"
    value {
      type: DT_FLOAT
    }
  }
}
node {
  name: "efficientnet/efficientnet-b0/model/blocks_0/se/conv2d_1/Conv2D"
  op: "Conv2D"
  input: "efficientnet/efficientnet-b0/model/blocks_0/se/IdentityN"
  input: "efficientnet/efficientnet-b0/model/blocks_0/se/conv2d_1/Conv2D/ReadVariableOp"
  attr {
    key: "T"
    value {
      type: DT_FLOAT
    }
  }
  attr {
    key: "data_format"
    value {
      s: "NHWC"
    }
  }
  attr {
    key: "dilations"
    value {
      list {
        i: 1
        i: 1
        i: 1
        i: 1
      }
    }
  }
  attr {
    key: "explicit_paddings"
    value {
      list {
      }
    }
  }
  attr {
    key: "padding"
    value {
      s: "SAME"
    }
  }
  attr {
    key: "strides"
    value {
      list {
        i: 1
        i: 1
        i: 1
        i: 1
      }
    }
  }
  attr {
    key: "use_cudnn_on_gpu"
    value {
      b: true
    }
  }
}
node {
  name: "efficientnet/efficientnet-b0/model/blocks_0/se/conv2d_1/BiasAdd/ReadVariableOp"
  op: "ReadVariableOp"
  input: "efficientnet/efficientnet-b0/blocks_0/se/conv2d_1/bias"
  attr {
    key: "dtype"
    value {
      type: DT_FLOAT
    }
  }
}
node {
  name: "efficientnet/efficientnet-b0/model/blocks_0/se/conv2d_1/BiasAdd"
  op: "BiasAdd"
  input: "efficientnet/efficientnet-b0/model/blocks_0/se/conv2d_1/Conv2D"
  input: "efficientnet/efficientnet-b0/model/blocks_0/se/conv2d_1/BiasAdd/ReadVariableOp"
  attr {
    key: "T"
    value {
      type: DT_FLOAT
    }
  }
  attr {
    key: "data_format"
    value {
      s: "NHWC"
    }
  }
}
node {
  name: "efficientnet/efficientnet-b0/model/blocks_0/se/Sigmoid_1"
  op: "Sigmoid"
  input: "efficientnet/efficientnet-b0/model/blocks_0/se/conv2d_1/BiasAdd"
  attr {
    key: "T"
    value {
      type: DT_FLOAT
    }
  }
}
node {
  name: "efficientnet/efficientnet-b0/model/blocks_0/se/mul_1"
  op: "Mul"
  input: "efficientnet/efficientnet-b0/model/blocks_0/se/Sigmoid_1"
  input: "efficientnet/efficientnet-b0/model/blocks_0/IdentityN"
  attr {
    key: "T"
    value {
      type: DT_FLOAT
    }
  }
}
node {
  name: "efficientnet/efficientnet-b0/blocks_0/conv2d/kernel/Initializer/random_normal/shape"
  op: "Const"
  attr {
    key: "_class"
    value {
      list {
        s: "loc:@efficientnet/efficientnet-b0/blocks_0/conv2d/kernel"
      }
    }
  }
  attr {
    key: "dtype"
    value {
      type: DT_INT32
    }
  }
  attr {
    key: "value"
    value {
      tensor {
        dtype: DT_INT32
        tensor_shape {
          dim {
            size: 4
          }
        }
        tensor_content: "\001\000\000\000\001\000\000\000 \000\000\000\020\000\000\000"
      }
    }
  }
}
node {
  name: "efficientnet/efficientnet-b0/blocks_0/conv2d/kernel/Initializer/random_normal/mean"
  op: "Const"
  attr {
    key: "_class"
    value {
      list {
        s: "loc:@efficientnet/efficientnet-b0/blocks_0/conv2d/kernel"
      }
    }
  }
  attr {
    key: "dtype"
    value {
      type: DT_FLOAT
    }
  }
  attr {
    key: "value"
    value {
      tensor {
        dtype: DT_FLOAT
        tensor_shape {
        }
        float_val: 0.0
      }
    }
  }
}
node {
  name: "efficientnet/efficientnet-b0/blocks_0/conv2d/kernel/Initializer/random_normal/stddev"
  op: "Const"
  attr {
    key: "_class"
    value {
      list {
        s: "loc:@efficientnet/efficientnet-b0/blocks_0/conv2d/kernel"
      }
    }
  }
  attr {
    key: "dtype"
    value {
      type: DT_FLOAT
    }
  }
  attr {
    key: "value"
    value {
      tensor {
        dtype: DT_FLOAT
        tensor_shape {
        }
        float_val: 0.3535533845424652
      }
    }
  }
}
node {
  name: "efficientnet/efficientnet-b0/blocks_0/conv2d/kernel/Initializer/random_normal/RandomStandardNormal"
  op: "RandomStandardNormal"
  input: "efficientnet/efficientnet-b0/blocks_0/conv2d/kernel/Initializer/random_normal/shape"
  attr {
    key: "T"
    value {
      type: DT_INT32
    }
  }
  attr {
    key: "_class"
    value {
      list {
        s: "loc:@efficientnet/efficientnet-b0/blocks_0/conv2d/kernel"
      }
    }
  }
  attr {
    key: "dtype"
    value {
      type: DT_FLOAT
    }
  }
  attr {
    key: "seed"
    value {
      i: 0
    }
  }
  attr {
    key: "seed2"
    value {
      i: 0
    }
  }
}
node {
  name: "efficientnet/efficientnet-b0/blocks_0/conv2d/kernel/Initializer/random_normal/mul"
  op: "Mul"
  input: "efficientnet/efficientnet-b0/blocks_0/conv2d/kernel/Initializer/random_normal/RandomStandardNormal"
  input: "efficientnet/efficientnet-b0/blocks_0/conv2d/kernel/Initializer/random_normal/stddev"
  attr {
    key: "T"
    value {
      type: DT_FLOAT
    }
  }
  attr {
    key: "_class"
    value {
      list {
        s: "loc:@efficientnet/efficientnet-b0/blocks_0/conv2d/kernel"
      }
    }
  }
}
node {
  name: "efficientnet/efficientnet-b0/blocks_0/conv2d/kernel/Initializer/random_normal"
  op: "AddV2"
  input: "efficientnet/efficientnet-b0/blocks_0/conv2d/kernel/Initializer/random_normal/mul"
  input: "efficientnet/efficientnet-b0/blocks_0/conv2d/kernel/Initializer/random_normal/mean"
  attr {
    key: "T"
    value {
      type: DT_FLOAT
    }
  }
  attr {
    key: "_class"
    value {
      list {
        s: "loc:@efficientnet/efficientnet-b0/blocks_0/conv2d/kernel"
      }
    }
  }
}
node {
  name: "efficientnet/efficientnet-b0/blocks_0/conv2d/kernel"
  op: "VarHandleOp"
  attr {
    key: "_class"
    value {
      list {
        s: "loc:@efficientnet/efficientnet-b0/blocks_0/conv2d/kernel"
      }
    }
  }
  attr {
    key: "allowed_devices"
    value {
      list {
      }
    }
  }
  attr {
    key: "container"
    value {
      s: ""
    }
  }
  attr {
    key: "dtype"
    value {
      type: DT_FLOAT
    }
  }
  attr {
    key: "shape"
    value {
      shape {
        dim {
          size: 1
        }
        dim {
          size: 1
        }
        dim {
          size: 32
        }
        dim {
          size: 16
        }
      }
    }
  }
  attr {
    key: "shared_name"
    value {
      s: "efficientnet/efficientnet-b0/blocks_0/conv2d/kernel"
    }
  }
}
node {
  name: "efficientnet/efficientnet-b0/blocks_0/conv2d/kernel/IsInitialized/VarIsInitializedOp"
  op: "VarIsInitializedOp"
  input: "efficientnet/efficientnet-b0/blocks_0/conv2d/kernel"
}
node {
  name: "efficientnet/efficientnet-b0/blocks_0/conv2d/kernel/Assign"
  op: "AssignVariableOp"
  input: "efficientnet/efficientnet-b0/blocks_0/conv2d/kernel"
  input: "efficientnet/efficientnet-b0/blocks_0/conv2d/kernel/Initializer/random_normal"
  attr {
    key: "dtype"
    value {
      type: DT_FLOAT
    }
  }
}
node {
  name: "efficientnet/efficientnet-b0/blocks_0/conv2d/kernel/Read/ReadVariableOp"
  op: "ReadVariableOp"
  input: "efficientnet/efficientnet-b0/blocks_0/conv2d/kernel"
  attr {
    key: "dtype"
    value {
      type: DT_FLOAT
    }
  }
}
node {
  name: "efficientnet/efficientnet-b0/model/blocks_0/conv2d/Conv2D/ReadVariableOp"
  op: "ReadVariableOp"
  input: "efficientnet/efficientnet-b0/blocks_0/conv2d/kernel"
  attr {
    key: "dtype"
    value {
      type: DT_FLOAT
    }
  }
}
node {
  name: "efficientnet/efficientnet-b0/model/blocks_0/conv2d/Conv2D"
  op: "Conv2D"
  input: "efficientnet/efficientnet-b0/model/blocks_0/se/mul_1"
  input: "efficientnet/efficientnet-b0/model/blocks_0/conv2d/Conv2D/ReadVariableOp"
  attr {
    key: "T"
    value {
      type: DT_FLOAT
    }
  }
  attr {
    key: "data_format"
    value {
      s: "NHWC"
    }
  }
  attr {
    key: "dilations"
    value {
      list {
        i: 1
        i: 1
        i: 1
        i: 1
      }
    }
  }
  attr {
    key: "explicit_paddings"
    value {
      list {
      }
    }
  }
  attr {
    key: "padding"
    value {
      s: "SAME"
    }
  }
  attr {
    key: "strides"
    value {
      list {
        i: 1
        i: 1
        i: 1
        i: 1
      }
    }
  }
  attr {
    key: "use_cudnn_on_gpu"
    value {
      b: true
    }
  }
}
node {
  name: "efficientnet/efficientnet-b0/blocks_0/tpu_batch_normalization_1/gamma/Initializer/ones"
  op: "Const"
  attr {
    key: "_class"
    value {
      list {
        s: "loc:@efficientnet/efficientnet-b0/blocks_0/tpu_batch_normalization_1/gamma"
      }
    }
  }
  attr {
    key: "dtype"
    value {
      type: DT_FLOAT
    }
  }
  attr {
    key: "value"
    value {
      tensor {
        dtype: DT_FLOAT
        tensor_shape {
          dim {
            size: 16
          }
        }
        float_val: 1.0
      }
    }
  }
}
node {
  name: "efficientnet/efficientnet-b0/blocks_0/tpu_batch_normalization_1/gamma"
  op: "VarHandleOp"
  attr {
    key: "_class"
    value {
      list {
        s: "loc:@efficientnet/efficientnet-b0/blocks_0/tpu_batch_normalization_1/gamma"
      }
    }
  }
  attr {
    key: "allowed_devices"
    value {
      list {
      }
    }
  }
  attr {
    key: "container"
    value {
      s: ""
    }
  }
  attr {
    key: "dtype"
    value {
      type: DT_FLOAT
    }
  }
  attr {
    key: "shape"
    value {
      shape {
        dim {
          size: 16
        }
      }
    }
  }
  attr {
    key: "shared_name"
    value {
      s: "efficientnet/efficientnet-b0/blocks_0/tpu_batch_normalization_1/gamma"
    }
  }
}
node {
  name: "efficientnet/efficientnet-b0/blocks_0/tpu_batch_normalization_1/gamma/IsInitialized/VarIsInitializedOp"
  op: "VarIsInitializedOp"
  input: "efficientnet/efficientnet-b0/blocks_0/tpu_batch_normalization_1/gamma"
}
node {
  name: "efficientnet/efficientnet-b0/blocks_0/tpu_batch_normalization_1/gamma/Assign"
  op: "AssignVariableOp"
  input: "efficientnet/efficientnet-b0/blocks_0/tpu_batch_normalization_1/gamma"
  input: "efficientnet/efficientnet-b0/blocks_0/tpu_batch_normalization_1/gamma/Initializer/ones"
  attr {
    key: "dtype"
    value {
      type: DT_FLOAT
    }
  }
}
node {
  name: "efficientnet/efficientnet-b0/blocks_0/tpu_batch_normalization_1/gamma/Read/ReadVariableOp"
  op: "ReadVariableOp"
  input: "efficientnet/efficientnet-b0/blocks_0/tpu_batch_normalization_1/gamma"
  attr {
    key: "dtype"
    value {
      type: DT_FLOAT
    }
  }
}
node {
  name: "efficientnet/efficientnet-b0/blocks_0/tpu_batch_normalization_1/beta/Initializer/zeros"
  op: "Const"
  attr {
    key: "_class"
    value {
      list {
        s: "loc:@efficientnet/efficientnet-b0/blocks_0/tpu_batch_normalization_1/beta"
      }
    }
  }
  attr {
    key: "dtype"
    value {
      type: DT_FLOAT
    }
  }
  attr {
    key: "value"
    value {
      tensor {
        dtype: DT_FLOAT
        tensor_shape {
          dim {
            size: 16
          }
        }
        float_val: 0.0
      }
    }
  }
}
node {
  name: "efficientnet/efficientnet-b0/blocks_0/tpu_batch_normalization_1/beta"
  op: "VarHandleOp"
  attr {
    key: "_class"
    value {
      list {
        s: "loc:@efficientnet/efficientnet-b0/blocks_0/tpu_batch_normalization_1/beta"
      }
    }
  }
  attr {
    key: "allowed_devices"
    value {
      list {
      }
    }
  }
  attr {
    key: "container"
    value {
      s: ""
    }
  }
  attr {
    key: "dtype"
    value {
      type: DT_FLOAT
    }
  }
  attr {
    key: "shape"
    value {
      shape {
        dim {
          size: 16
        }
      }
    }
  }
  attr {
    key: "shared_name"
    value {
      s: "efficientnet/efficientnet-b0/blocks_0/tpu_batch_normalization_1/beta"
    }
  }
}
node {
  name: "efficientnet/efficientnet-b0/blocks_0/tpu_batch_normalization_1/beta/IsInitialized/VarIsInitializedOp"
  op: "VarIsInitializedOp"
  input: "efficientnet/efficientnet-b0/blocks_0/tpu_batch_normalization_1/beta"
}
node {
  name: "efficientnet/efficientnet-b0/blocks_0/tpu_batch_normalization_1/beta/Assign"
  op: "AssignVariableOp"
  input: "efficientnet/efficientnet-b0/blocks_0/tpu_batch_normalization_1/beta"
  input: "efficientnet/efficientnet-b0/blocks_0/tpu_batch_normalization_1/beta/Initializer/zeros"
  attr {
    key: "dtype"
    value {
      type: DT_FLOAT
    }
  }
}
node {
  name: "efficientnet/efficientnet-b0/blocks_0/tpu_batch_normalization_1/beta/Read/ReadVariableOp"
  op: "ReadVariableOp"
  input: "efficientnet/efficientnet-b0/blocks_0/tpu_batch_normalization_1/beta"
  attr {
    key: "dtype"
    value {
      type: DT_FLOAT
    }
  }
}
node {
  name: "efficientnet/efficientnet-b0/blocks_0/tpu_batch_normalization_1/moving_mean/Initializer/zeros"
  op: "Const"
  attr {
    key: "_class"
    value {
      list {
        s: "loc:@efficientnet/efficientnet-b0/blocks_0/tpu_batch_normalization_1/moving_mean"
      }
    }
  }
  attr {
    key: "dtype"
    value {
      type: DT_FLOAT
    }
  }
  attr {
    key: "value"
    value {
      tensor {
        dtype: DT_FLOAT
        tensor_shape {
          dim {
            size: 16
          }
        }
        float_val: 0.0
      }
    }
  }
}
node {
  name: "efficientnet/efficientnet-b0/blocks_0/tpu_batch_normalization_1/moving_mean"
  op: "VarHandleOp"
  attr {
    key: "_class"
    value {
      list {
        s: "loc:@efficientnet/efficientnet-b0/blocks_0/tpu_batch_normalization_1/moving_mean"
      }
    }
  }
  attr {
    key: "allowed_devices"
    value {
      list {
      }
    }
  }
  attr {
    key: "container"
    value {
      s: ""
    }
  }
  attr {
    key: "dtype"
    value {
      type: DT_FLOAT
    }
  }
  attr {
    key: "shape"
    value {
      shape {
        dim {
          size: 16
        }
      }
    }
  }
  attr {
    key: "shared_name"
    value {
      s: "efficientnet/efficientnet-b0/blocks_0/tpu_batch_normalization_1/moving_mean"
    }
  }
}
node {
  name: "efficientnet/efficientnet-b0/blocks_0/tpu_batch_normalization_1/moving_mean/IsInitialized/VarIsInitializedOp"
  op: "VarIsInitializedOp"
  input: "efficientnet/efficientnet-b0/blocks_0/tpu_batch_normalization_1/moving_mean"
}
node {
  name: "efficientnet/efficientnet-b0/blocks_0/tpu_batch_normalization_1/moving_mean/Assign"
  op: "AssignVariableOp"
  input: "efficientnet/efficientnet-b0/blocks_0/tpu_batch_normalization_1/moving_mean"
  input: "efficientnet/efficientnet-b0/blocks_0/tpu_batch_normalization_1/moving_mean/Initializer/zeros"
  attr {
    key: "dtype"
    value {
      type: DT_FLOAT
    }
  }
}
node {
  name: "efficientnet/efficientnet-b0/blocks_0/tpu_batch_normalization_1/moving_mean/Read/ReadVariableOp"
  op: "ReadVariableOp"
  input: "efficientnet/efficientnet-b0/blocks_0/tpu_batch_normalization_1/moving_mean"
  attr {
    key: "dtype"
    value {
      type: DT_FLOAT
    }
  }
}
node {
  name: "efficientnet/efficientnet-b0/blocks_0/tpu_batch_normalization_1/moving_variance/Initializer/ones"
  op: "Const"
  attr {
    key: "_class"
    value {
      list {
        s: "loc:@efficientnet/efficientnet-b0/blocks_0/tpu_batch_normalization_1/moving_variance"
      }
    }
  }
  attr {
    key: "dtype"
    value {
      type: DT_FLOAT
    }
  }
  attr {
    key: "value"
    value {
      tensor {
        dtype: DT_FLOAT
        tensor_shape {
          dim {
            size: 16
          }
        }
        float_val: 1.0
      }
    }
  }
}
node {
  name: "efficientnet/efficientnet-b0/blocks_0/tpu_batch_normalization_1/moving_variance"
  op: "VarHandleOp"
  attr {
    key: "_class"
    value {
      list {
        s: "loc:@efficientnet/efficientnet-b0/blocks_0/tpu_batch_normalization_1/moving_variance"
      }
    }
  }
  attr {
    key: "allowed_devices"
    value {
      list {
      }
    }
  }
  attr {
    key: "container"
    value {
      s: ""
    }
  }
  attr {
    key: "dtype"
    value {
      type: DT_FLOAT
    }
  }
  attr {
    key: "shape"
    value {
      shape {
        dim {
          size: 16
        }
      }
    }
  }
  attr {
    key: "shared_name"
    value {
      s: "efficientnet/efficientnet-b0/blocks_0/tpu_batch_normalization_1/moving_variance"
    }
  }
}
node {
  name: "efficientnet/efficientnet-b0/blocks_0/tpu_batch_normalization_1/moving_variance/IsInitialized/VarIsInitializedOp"
  op: "VarIsInitializedOp"
  input: "efficientnet/efficientnet-b0/blocks_0/tpu_batch_normalization_1/moving_variance"
}
node {
  name: "efficientnet/efficientnet-b0/blocks_0/tpu_batch_normalization_1/moving_variance/Assign"
  op: "AssignVariableOp"
  input: "efficientnet/efficientnet-b0/blocks_0/tpu_batch_normalization_1/moving_variance"
  input: "efficientnet/efficientnet-b0/blocks_0/tpu_batch_normalization_1/moving_variance/Initializer/ones"
  attr {
    key: "dtype"
    value {
      type: DT_FLOAT
    }
  }
}
node {
  name: "efficientnet/efficientnet-b0/blocks_0/tpu_batch_normalization_1/moving_variance/Read/ReadVariableOp"
  op: "ReadVariableOp"
  input: "efficientnet/efficientnet-b0/blocks_0/tpu_batch_normalization_1/moving_variance"
  attr {
    key: "dtype"
    value {
      type: DT_FLOAT
    }
  }
}
node {
  name: "efficientnet/efficientnet-b0/model/blocks_0/tpu_batch_normalization_1/ReadVariableOp"
  op: "ReadVariableOp"
  input: "efficientnet/efficientnet-b0/blocks_0/tpu_batch_normalization_1/gamma"
  attr {
    key: "dtype"
    value {
      type: DT_FLOAT
    }
  }
}
node {
  name: "efficientnet/efficientnet-b0/model/blocks_0/tpu_batch_normalization_1/ReadVariableOp_1"
  op: "ReadVariableOp"
  input: "efficientnet/efficientnet-b0/blocks_0/tpu_batch_normalization_1/beta"
  attr {
    key: "dtype"
    value {
      type: DT_FLOAT
    }
  }
}
node {
  name: "efficientnet/efficientnet-b0/model/blocks_0/tpu_batch_normalization_1/FusedBatchNormV3/ReadVariableOp"
  op: "ReadVariableOp"
  input: "efficientnet/efficientnet-b0/blocks_0/tpu_batch_normalization_1/moving_mean"
  attr {
    key: "dtype"
    value {
      type: DT_FLOAT
    }
  }
}
node {
  name: "efficientnet/efficientnet-b0/model/blocks_0/tpu_batch_normalization_1/FusedBatchNormV3/ReadVariableOp_1"
  op: "ReadVariableOp"
  input: "efficientnet/efficientnet-b0/blocks_0/tpu_batch_normalization_1/moving_variance"
  attr {
    key: "dtype"
    value {
      type: DT_FLOAT
    }
  }
}
node {
  name: "efficientnet/efficientnet-b0/model/blocks_0/tpu_batch_normalization_1/FusedBatchNormV3"
  op: "FusedBatchNormV3"
  input: "efficientnet/efficientnet-b0/model/blocks_0/conv2d/Conv2D"
  input: "efficientnet/efficientnet-b0/model/blocks_0/tpu_batch_normalization_1/ReadVariableOp"
  input: "efficientnet/efficientnet-b0/model/blocks_0/tpu_batch_normalization_1/ReadVariableOp_1"
  input: "efficientnet/efficientnet-b0/model/blocks_0/tpu_batch_normalization_1/FusedBatchNormV3/ReadVariableOp"
  input: "efficientnet/efficientnet-b0/model/blocks_0/tpu_batch_normalization_1/FusedBatchNormV3/ReadVariableOp_1"
  attr {
    key: "T"
    value {
      type: DT_FLOAT
    }
  }
  attr {
    key: "U"
    value {
      type: DT_FLOAT
    }
  }
  attr {
    key: "data_format"
    value {
      s: "NHWC"
    }
  }
  attr {
    key: "epsilon"
    value {
      f: 0.0010000000474974513
    }
  }
  attr {
    key: "exponential_avg_factor"
    value {
      f: 1.0
    }
  }
  attr {
    key: "is_training"
    value {
      b: false
    }
  }
}
node {
  name: "efficientnet/efficientnet-b0/blocks_1/conv2d/kernel/Initializer/random_normal/shape"
  op: "Const"
  attr {
    key: "_class"
    value {
      list {
        s: "loc:@efficientnet/efficientnet-b0/blocks_1/conv2d/kernel"
      }
    }
  }
  attr {
    key: "dtype"
    value {
      type: DT_INT32
    }
  }
  attr {
    key: "value"
    value {
      tensor {
        dtype: DT_INT32
        tensor_shape {
          dim {
            size: 4
          }
        }
        tensor_content: "\001\000\000\000\001\000\000\000\020\000\000\000`\000\000\000"
      }
    }
  }
}
node {
  name: "efficientnet/efficientnet-b0/blocks_1/conv2d/kernel/Initializer/random_normal/mean"
  op: "Const"
  attr {
    key: "_class"
    value {
      list {
        s: "loc:@efficientnet/efficientnet-b0/blocks_1/conv2d/kernel"
      }
    }
  }
  attr {
    key: "dtype"
    value {
      type: DT_FLOAT
    }
  }
  attr {
    key: "value"
    value {
      tensor {
        dtype: DT_FLOAT
        tensor_shape {
        }
        float_val: 0.0
      }
    }
  }
}
node {
  name: "efficientnet/efficientnet-b0/blocks_1/conv2d/kernel/Initializer/random_normal/stddev"
  op: "Const"
  attr {
    key: "_class"
    value {
      list {
        s: "loc:@efficientnet/efficientnet-b0/blocks_1/conv2d/kernel"
      }
    }
  }
  attr {
    key: "dtype"
    value {
      type: DT_FLOAT
    }
  }
  attr {
    key: "value"
    value {
      tensor {
        dtype: DT_FLOAT
        tensor_shape {
        }
        float_val: 0.14433756470680237
      }
    }
  }
}
node {
  name: "efficientnet/efficientnet-b0/blocks_1/conv2d/kernel/Initializer/random_normal/RandomStandardNormal"
  op: "RandomStandardNormal"
  input: "efficientnet/efficientnet-b0/blocks_1/conv2d/kernel/Initializer/random_normal/shape"
  attr {
    key: "T"
    value {
      type: DT_INT32
    }
  }
  attr {
    key: "_class"
    value {
      list {
        s: "loc:@efficientnet/efficientnet-b0/blocks_1/conv2d/kernel"
      }
    }
  }
  attr {
    key: "dtype"
    value {
      type: DT_FLOAT
    }
  }
  attr {
    key: "seed"
    value {
      i: 0
    }
  }
  attr {
    key: "seed2"
    value {
      i: 0
    }
  }
}
node {
  name: "efficientnet/efficientnet-b0/blocks_1/conv2d/kernel/Initializer/random_normal/mul"
  op: "Mul"
  input: "efficientnet/efficientnet-b0/blocks_1/conv2d/kernel/Initializer/random_normal/RandomStandardNormal"
  input: "efficientnet/efficientnet-b0/blocks_1/conv2d/kernel/Initializer/random_normal/stddev"
  attr {
    key: "T"
    value {
      type: DT_FLOAT
    }
  }
  attr {
    key: "_class"
    value {
      list {
        s: "loc:@efficientnet/efficientnet-b0/blocks_1/conv2d/kernel"
      }
    }
  }
}
node {
  name: "efficientnet/efficientnet-b0/blocks_1/conv2d/kernel/Initializer/random_normal"
  op: "AddV2"
  input: "efficientnet/efficientnet-b0/blocks_1/conv2d/kernel/Initializer/random_normal/mul"
  input: "efficientnet/efficientnet-b0/blocks_1/conv2d/kernel/Initializer/random_normal/mean"
  attr {
    key: "T"
    value {
      type: DT_FLOAT
    }
  }
  attr {
    key: "_class"
    value {
      list {
        s: "loc:@efficientnet/efficientnet-b0/blocks_1/conv2d/kernel"
      }
    }
  }
}
node {
  name: "efficientnet/efficientnet-b0/blocks_1/conv2d/kernel"
  op: "VarHandleOp"
  attr {
    key: "_class"
    value {
      list {
        s: "loc:@efficientnet/efficientnet-b0/blocks_1/conv2d/kernel"
      }
    }
  }
  attr {
    key: "allowed_devices"
    value {
      list {
      }
    }
  }
  attr {
    key: "container"
    value {
      s: ""
    }
  }
  attr {
    key: "dtype"
    value {
      type: DT_FLOAT
    }
  }
  attr {
    key: "shape"
    value {
      shape {
        dim {
          size: 1
        }
        dim {
          size: 1
        }
        dim {
          size: 16
        }
        dim {
          size: 96
        }
      }
    }
  }
  attr {
    key: "shared_name"
    value {
      s: "efficientnet/efficientnet-b0/blocks_1/conv2d/kernel"
    }
  }
}
node {
  name: "efficientnet/efficientnet-b0/blocks_1/conv2d/kernel/IsInitialized/VarIsInitializedOp"
  op: "VarIsInitializedOp"
  input: "efficientnet/efficientnet-b0/blocks_1/conv2d/kernel"
}
node {
  name: "efficientnet/efficientnet-b0/blocks_1/conv2d/kernel/Assign"
  op: "AssignVariableOp"
  input: "efficientnet/efficientnet-b0/blocks_1/conv2d/kernel"
  input: "efficientnet/efficientnet-b0/blocks_1/conv2d/kernel/Initializer/random_normal"
  attr {
    key: "dtype"
    value {
      type: DT_FLOAT
    }
  }
}
node {
  name: "efficientnet/efficientnet-b0/blocks_1/conv2d/kernel/Read/ReadVariableOp"
  op: "ReadVariableOp"
  input: "efficientnet/efficientnet-b0/blocks_1/conv2d/kernel"
  attr {
    key: "dtype"
    value {
      type: DT_FLOAT
    }
  }
}
node {
  name: "efficientnet/efficientnet-b0/model/blocks_1/conv2d/Conv2D/ReadVariableOp"
  op: "ReadVariableOp"
  input: "efficientnet/efficientnet-b0/blocks_1/conv2d/kernel"
  attr {
    key: "dtype"
    value {
      type: DT_FLOAT
    }
  }
}
node {
  name: "efficientnet/efficientnet-b0/model/blocks_1/conv2d/Conv2D"
  op: "Conv2D"
  input: "efficientnet/efficientnet-b0/model/blocks_0/tpu_batch_normalization_1/FusedBatchNormV3"
  input: "efficientnet/efficientnet-b0/model/blocks_1/conv2d/Conv2D/ReadVariableOp"
  attr {
    key: "T"
    value {
      type: DT_FLOAT
    }
  }
  attr {
    key: "data_format"
    value {
      s: "NHWC"
    }
  }
  attr {
    key: "dilations"
    value {
      list {
        i: 1
        i: 1
        i: 1
        i: 1
      }
    }
  }
  attr {
    key: "explicit_paddings"
    value {
      list {
      }
    }
  }
  attr {
    key: "padding"
    value {
      s: "SAME"
    }
  }
  attr {
    key: "strides"
    value {
      list {
        i: 1
        i: 1
        i: 1
        i: 1
      }
    }
  }
  attr {
    key: "use_cudnn_on_gpu"
    value {
      b: true
    }
  }
}
node {
  name: "efficientnet/efficientnet-b0/blocks_1/tpu_batch_normalization/gamma/Initializer/ones"
  op: "Const"
  attr {
    key: "_class"
    value {
      list {
        s: "loc:@efficientnet/efficientnet-b0/blocks_1/tpu_batch_normalization/gamma"
      }
    }
  }
  attr {
    key: "dtype"
    value {
      type: DT_FLOAT
    }
  }
  attr {
    key: "value"
    value {
      tensor {
        dtype: DT_FLOAT
        tensor_shape {
          dim {
            size: 96
          }
        }
        float_val: 1.0
      }
    }
  }
}
node {
  name: "efficientnet/efficientnet-b0/blocks_1/tpu_batch_normalization/gamma"
  op: "VarHandleOp"
  attr {
    key: "_class"
    value {
      list {
        s: "loc:@efficientnet/efficientnet-b0/blocks_1/tpu_batch_normalization/gamma"
      }
    }
  }
  attr {
    key: "allowed_devices"
    value {
      list {
      }
    }
  }
  attr {
    key: "container"
    value {
      s: ""
    }
  }
  attr {
    key: "dtype"
    value {
      type: DT_FLOAT
    }
  }
  attr {
    key: "shape"
    value {
      shape {
        dim {
          size: 96
        }
      }
    }
  }
  attr {
    key: "shared_name"
    value {
      s: "efficientnet/efficientnet-b0/blocks_1/tpu_batch_normalization/gamma"
    }
  }
}
node {
  name: "efficientnet/efficientnet-b0/blocks_1/tpu_batch_normalization/gamma/IsInitialized/VarIsInitializedOp"
  op: "VarIsInitializedOp"
  input: "efficientnet/efficientnet-b0/blocks_1/tpu_batch_normalization/gamma"
}
node {
  name: "efficientnet/efficientnet-b0/blocks_1/tpu_batch_normalization/gamma/Assign"
  op: "AssignVariableOp"
  input: "efficientnet/efficientnet-b0/blocks_1/tpu_batch_normalization/gamma"
  input: "efficientnet/efficientnet-b0/blocks_1/tpu_batch_normalization/gamma/Initializer/ones"
  attr {
    key: "dtype"
    value {
      type: DT_FLOAT
    }
  }
}
node {
  name: "efficientnet/efficientnet-b0/blocks_1/tpu_batch_normalization/gamma/Read/ReadVariableOp"
  op: "ReadVariableOp"
  input: "efficientnet/efficientnet-b0/blocks_1/tpu_batch_normalization/gamma"
  attr {
    key: "dtype"
    value {
      type: DT_FLOAT
    }
  }
}
node {
  name: "efficientnet/efficientnet-b0/blocks_1/tpu_batch_normalization/beta/Initializer/zeros"
  op: "Const"
  attr {
    key: "_class"
    value {
      list {
        s: "loc:@efficientnet/efficientnet-b0/blocks_1/tpu_batch_normalization/beta"
      }
    }
  }
  attr {
    key: "dtype"
    value {
      type: DT_FLOAT
    }
  }
  attr {
    key: "value"
    value {
      tensor {
        dtype: DT_FLOAT
        tensor_shape {
          dim {
            size: 96
          }
        }
        float_val: 0.0
      }
    }
  }
}
node {
  name: "efficientnet/efficientnet-b0/blocks_1/tpu_batch_normalization/beta"
  op: "VarHandleOp"
  attr {
    key: "_class"
    value {
      list {
        s: "loc:@efficientnet/efficientnet-b0/blocks_1/tpu_batch_normalization/beta"
      }
    }
  }
  attr {
    key: "allowed_devices"
    value {
      list {
      }
    }
  }
  attr {
    key: "container"
    value {
      s: ""
    }
  }
  attr {
    key: "dtype"
    value {
      type: DT_FLOAT
    }
  }
  attr {
    key: "shape"
    value {
      shape {
        dim {
          size: 96
        }
      }
    }
  }
  attr {
    key: "shared_name"
    value {
      s: "efficientnet/efficientnet-b0/blocks_1/tpu_batch_normalization/beta"
    }
  }
}
node {
  name: "efficientnet/efficientnet-b0/blocks_1/tpu_batch_normalization/beta/IsInitialized/VarIsInitializedOp"
  op: "VarIsInitializedOp"
  input: "efficientnet/efficientnet-b0/blocks_1/tpu_batch_normalization/beta"
}
node {
  name: "efficientnet/efficientnet-b0/blocks_1/tpu_batch_normalization/beta/Assign"
  op: "AssignVariableOp"
  input: "efficientnet/efficientnet-b0/blocks_1/tpu_batch_normalization/beta"
  input: "efficientnet/efficientnet-b0/blocks_1/tpu_batch_normalization/beta/Initializer/zeros"
  attr {
    key: "dtype"
    value {
      type: DT_FLOAT
    }
  }
}
node {
  name: "efficientnet/efficientnet-b0/blocks_1/tpu_batch_normalization/beta/Read/ReadVariableOp"
  op: "ReadVariableOp"
  input: "efficientnet/efficientnet-b0/blocks_1/tpu_batch_normalization/beta"
  attr {
    key: "dtype"
    value {
      type: DT_FLOAT
    }
  }
}
node {
  name: "efficientnet/efficientnet-b0/blocks_1/tpu_batch_normalization/moving_mean/Initializer/zeros"
  op: "Const"
  attr {
    key: "_class"
    value {
      list {
        s: "loc:@efficientnet/efficientnet-b0/blocks_1/tpu_batch_normalization/moving_mean"
      }
    }
  }
  attr {
    key: "dtype"
    value {
      type: DT_FLOAT
    }
  }
  attr {
    key: "value"
    value {
      tensor {
        dtype: DT_FLOAT
        tensor_shape {
          dim {
            size: 96
          }
        }
        float_val: 0.0
      }
    }
  }
}
node {
  name: "efficientnet/efficientnet-b0/blocks_1/tpu_batch_normalization/moving_mean"
  op: "VarHandleOp"
  attr {
    key: "_class"
    value {
      list {
        s: "loc:@efficientnet/efficientnet-b0/blocks_1/tpu_batch_normalization/moving_mean"
      }
    }
  }
  attr {
    key: "allowed_devices"
    value {
      list {
      }
    }
  }
  attr {
    key: "container"
    value {
      s: ""
    }
  }
  attr {
    key: "dtype"
    value {
      type: DT_FLOAT
    }
  }
  attr {
    key: "shape"
    value {
      shape {
        dim {
          size: 96
        }
      }
    }
  }
  attr {
    key: "shared_name"
    value {
      s: "efficientnet/efficientnet-b0/blocks_1/tpu_batch_normalization/moving_mean"
    }
  }
}
node {
  name: "efficientnet/efficientnet-b0/blocks_1/tpu_batch_normalization/moving_mean/IsInitialized/VarIsInitializedOp"
  op: "VarIsInitializedOp"
  input: "efficientnet/efficientnet-b0/blocks_1/tpu_batch_normalization/moving_mean"
}
node {
  name: "efficientnet/efficientnet-b0/blocks_1/tpu_batch_normalization/moving_mean/Assign"
  op: "AssignVariableOp"
  input: "efficientnet/efficientnet-b0/blocks_1/tpu_batch_normalization/moving_mean"
  input: "efficientnet/efficientnet-b0/blocks_1/tpu_batch_normalization/moving_mean/Initializer/zeros"
  attr {
    key: "dtype"
    value {
      type: DT_FLOAT
    }
  }
}
node {
  name: "efficientnet/efficientnet-b0/blocks_1/tpu_batch_normalization/moving_mean/Read/ReadVariableOp"
  op: "ReadVariableOp"
  input: "efficientnet/efficientnet-b0/blocks_1/tpu_batch_normalization/moving_mean"
  attr {
    key: "dtype"
    value {
      type: DT_FLOAT
    }
  }
}
node {
  name: "efficientnet/efficientnet-b0/blocks_1/tpu_batch_normalization/moving_variance/Initializer/ones"
  op: "Const"
  attr {
    key: "_class"
    value {
      list {
        s: "loc:@efficientnet/efficientnet-b0/blocks_1/tpu_batch_normalization/moving_variance"
      }
    }
  }
  attr {
    key: "dtype"
    value {
      type: DT_FLOAT
    }
  }
  attr {
    key: "value"
    value {
      tensor {
        dtype: DT_FLOAT
        tensor_shape {
          dim {
            size: 96
          }
        }
        float_val: 1.0
      }
    }
  }
}
node {
  name: "efficientnet/efficientnet-b0/blocks_1/tpu_batch_normalization/moving_variance"
  op: "VarHandleOp"
  attr {
    key: "_class"
    value {
      list {
        s: "loc:@efficientnet/efficientnet-b0/blocks_1/tpu_batch_normalization/moving_variance"
      }
    }
  }
  attr {
    key: "allowed_devices"
    value {
      list {
      }
    }
  }
  attr {
    key: "container"
    value {
      s: ""
    }
  }
  attr {
    key: "dtype"
    value {
      type: DT_FLOAT
    }
  }
  attr {
    key: "shape"
    value {
      shape {
        dim {
          size: 96
        }
      }
    }
  }
  attr {
    key: "shared_name"
    value {
      s: "efficientnet/efficientnet-b0/blocks_1/tpu_batch_normalization/moving_variance"
    }
  }
}
node {
  name: "efficientnet/efficientnet-b0/blocks_1/tpu_batch_normalization/moving_variance/IsInitialized/VarIsInitializedOp"
  op: "VarIsInitializedOp"
  input: "efficientnet/efficientnet-b0/blocks_1/tpu_batch_normalization/moving_variance"
}
node {
  name: "efficientnet/efficientnet-b0/blocks_1/tpu_batch_normalization/moving_variance/Assign"
  op: "AssignVariableOp"
  input: "efficientnet/efficientnet-b0/blocks_1/tpu_batch_normalization/moving_variance"
  input: "efficientnet/efficientnet-b0/blocks_1/tpu_batch_normalization/moving_variance/Initializer/ones"
  attr {
    key: "dtype"
    value {
      type: DT_FLOAT
    }
  }
}
node {
  name: "efficientnet/efficientnet-b0/blocks_1/tpu_batch_normalization/moving_variance/Read/ReadVariableOp"
  op: "ReadVariableOp"
  input: "efficientnet/efficientnet-b0/blocks_1/tpu_batch_normalization/moving_variance"
  attr {
    key: "dtype"
    value {
      type: DT_FLOAT
    }
  }
}
node {
  name: "efficientnet/efficientnet-b0/model/blocks_1/tpu_batch_normalization/ReadVariableOp"
  op: "ReadVariableOp"
  input: "efficientnet/efficientnet-b0/blocks_1/tpu_batch_normalization/gamma"
  attr {
    key: "dtype"
    value {
      type: DT_FLOAT
    }
  }
}
node {
  name: "efficientnet/efficientnet-b0/model/blocks_1/tpu_batch_normalization/ReadVariableOp_1"
  op: "ReadVariableOp"
  input: "efficientnet/efficientnet-b0/blocks_1/tpu_batch_normalization/beta"
  attr {
    key: "dtype"
    value {
      type: DT_FLOAT
    }
  }
}
node {
  name: "efficientnet/efficientnet-b0/model/blocks_1/tpu_batch_normalization/FusedBatchNormV3/ReadVariableOp"
  op: "ReadVariableOp"
  input: "efficientnet/efficientnet-b0/blocks_1/tpu_batch_normalization/moving_mean"
  attr {
    key: "dtype"
    value {
      type: DT_FLOAT
    }
  }
}
node {
  name: "efficientnet/efficientnet-b0/model/blocks_1/tpu_batch_normalization/FusedBatchNormV3/ReadVariableOp_1"
  op: "ReadVariableOp"
  input: "efficientnet/efficientnet-b0/blocks_1/tpu_batch_normalization/moving_variance"
  attr {
    key: "dtype"
    value {
      type: DT_FLOAT
    }
  }
}
node {
  name: "efficientnet/efficientnet-b0/model/blocks_1/tpu_batch_normalization/FusedBatchNormV3"
  op: "FusedBatchNormV3"
  input: "efficientnet/efficientnet-b0/model/blocks_1/conv2d/Conv2D"
  input: "efficientnet/efficientnet-b0/model/blocks_1/tpu_batch_normalization/ReadVariableOp"
  input: "efficientnet/efficientnet-b0/model/blocks_1/tpu_batch_normalization/ReadVariableOp_1"
  input: "efficientnet/efficientnet-b0/model/blocks_1/tpu_batch_normalization/FusedBatchNormV3/ReadVariableOp"
  input: "efficientnet/efficientnet-b0/model/blocks_1/tpu_batch_normalization/FusedBatchNormV3/ReadVariableOp_1"
  attr {
    key: "T"
    value {
      type: DT_FLOAT
    }
  }
  attr {
    key: "U"
    value {
      type: DT_FLOAT
    }
  }
  attr {
    key: "data_format"
    value {
      s: "NHWC"
    }
  }
  attr {
    key: "epsilon"
    value {
      f: 0.0010000000474974513
    }
  }
  attr {
    key: "exponential_avg_factor"
    value {
      f: 1.0
    }
  }
  attr {
    key: "is_training"
    value {
      b: false
    }
  }
}
node {
  name: "efficientnet/efficientnet-b0/model/blocks_1/Sigmoid"
  op: "Sigmoid"
  input: "efficientnet/efficientnet-b0/model/blocks_1/tpu_batch_normalization/FusedBatchNormV3"
  attr {
    key: "T"
    value {
      type: DT_FLOAT
    }
  }
}
node {
  name: "efficientnet/efficientnet-b0/model/blocks_1/mul"
  op: "Mul"
  input: "efficientnet/efficientnet-b0/model/blocks_1/tpu_batch_normalization/FusedBatchNormV3"
  input: "efficientnet/efficientnet-b0/model/blocks_1/Sigmoid"
  attr {
    key: "T"
    value {
      type: DT_FLOAT
    }
  }
}
node {
  name: "efficientnet/efficientnet-b0/model/blocks_1/Identity"
  op: "Identity"
  input: "efficientnet/efficientnet-b0/model/blocks_1/mul"
  attr {
    key: "T"
    value {
      type: DT_FLOAT
    }
  }
}
node {
  name: "efficientnet/efficientnet-b0/model/blocks_1/IdentityN"
  op: "IdentityN"
  input: "efficientnet/efficientnet-b0/model/blocks_1/mul"
  input: "efficientnet/efficientnet-b0/model/blocks_1/tpu_batch_normalization/FusedBatchNormV3"
  attr {
    key: "T"
    value {
      list {
        type: DT_FLOAT
        type: DT_FLOAT
      }
    }
  }
  attr {
    key: "_gradient_op_type"
    value {
      s: "CustomGradient-37467"
    }
  }
}
node {
  name: "efficientnet/efficientnet-b0/blocks_1/depthwise_conv2d/depthwise_kernel/Initializer/random_normal/shape"
  op: "Const"
  attr {
    key: "_class"
    value {
      list {
        s: "loc:@efficientnet/efficientnet-b0/blocks_1/depthwise_conv2d/depthwise_kernel"
      }
    }
  }
  attr {
    key: "dtype"
    value {
      type: DT_INT32
    }
  }
  attr {
    key: "value"
    value {
      tensor {
        dtype: DT_INT32
        tensor_shape {
          dim {
            size: 4
          }
        }
        tensor_content: "\003\000\000\000\003\000\000\000`\000\000\000\001\000\000\000"
      }
    }
  }
}
node {
  name: "efficientnet/efficientnet-b0/blocks_1/depthwise_conv2d/depthwise_kernel/Initializer/random_normal/mean"
  op: "Const"
  attr {
    key: "_class"
    value {
      list {
        s: "loc:@efficientnet/efficientnet-b0/blocks_1/depthwise_conv2d/depthwise_kernel"
      }
    }
  }
  attr {
    key: "dtype"
    value {
      type: DT_FLOAT
    }
  }
  attr {
    key: "value"
    value {
      tensor {
        dtype: DT_FLOAT
        tensor_shape {
        }
        float_val: 0.0
      }
    }
  }
}
node {
  name: "efficientnet/efficientnet-b0/blocks_1/depthwise_conv2d/depthwise_kernel/Initializer/random_normal/stddev"
  op: "Const"
  attr {
    key: "_class"
    value {
      list {
        s: "loc:@efficientnet/efficientnet-b0/blocks_1/depthwise_conv2d/depthwise_kernel"
      }
    }
  }
  attr {
    key: "dtype"
    value {
      type: DT_FLOAT
    }
  }
  attr {
    key: "value"
    value {
      tensor {
        dtype: DT_FLOAT
        tensor_shape {
        }
        float_val: 0.4714045226573944
      }
    }
  }
}
node {
  name: "efficientnet/efficientnet-b0/blocks_1/depthwise_conv2d/depthwise_kernel/Initializer/random_normal/RandomStandardNormal"
  op: "RandomStandardNormal"
  input: "efficientnet/efficientnet-b0/blocks_1/depthwise_conv2d/depthwise_kernel/Initializer/random_normal/shape"
  attr {
    key: "T"
    value {
      type: DT_INT32
    }
  }
  attr {
    key: "_class"
    value {
      list {
        s: "loc:@efficientnet/efficientnet-b0/blocks_1/depthwise_conv2d/depthwise_kernel"
      }
    }
  }
  attr {
    key: "dtype"
    value {
      type: DT_FLOAT
    }
  }
  attr {
    key: "seed"
    value {
      i: 0
    }
  }
  attr {
    key: "seed2"
    value {
      i: 0
    }
  }
}
node {
  name: "efficientnet/efficientnet-b0/blocks_1/depthwise_conv2d/depthwise_kernel/Initializer/random_normal/mul"
  op: "Mul"
  input: "efficientnet/efficientnet-b0/blocks_1/depthwise_conv2d/depthwise_kernel/Initializer/random_normal/RandomStandardNormal"
  input: "efficientnet/efficientnet-b0/blocks_1/depthwise_conv2d/depthwise_kernel/Initializer/random_normal/stddev"
  attr {
    key: "T"
    value {
      type: DT_FLOAT
    }
  }
  attr {
    key: "_class"
    value {
      list {
        s: "loc:@efficientnet/efficientnet-b0/blocks_1/depthwise_conv2d/depthwise_kernel"
      }
    }
  }
}
node {
  name: "efficientnet/efficientnet-b0/blocks_1/depthwise_conv2d/depthwise_kernel/Initializer/random_normal"
  op: "AddV2"
  input: "efficientnet/efficientnet-b0/blocks_1/depthwise_conv2d/depthwise_kernel/Initializer/random_normal/mul"
  input: "efficientnet/efficientnet-b0/blocks_1/depthwise_conv2d/depthwise_kernel/Initializer/random_normal/mean"
  attr {
    key: "T"
    value {
      type: DT_FLOAT
    }
  }
  attr {
    key: "_class"
    value {
      list {
        s: "loc:@efficientnet/efficientnet-b0/blocks_1/depthwise_conv2d/depthwise_kernel"
      }
    }
  }
}
node {
  name: "efficientnet/efficientnet-b0/blocks_1/depthwise_conv2d/depthwise_kernel"
  op: "VarHandleOp"
  attr {
    key: "_class"
    value {
      list {
        s: "loc:@efficientnet/efficientnet-b0/blocks_1/depthwise_conv2d/depthwise_kernel"
      }
    }
  }
  attr {
    key: "allowed_devices"
    value {
      list {
      }
    }
  }
  attr {
    key: "container"
    value {
      s: ""
    }
  }
  attr {
    key: "dtype"
    value {
      type: DT_FLOAT
    }
  }
  attr {
    key: "shape"
    value {
      shape {
        dim {
          size: 3
        }
        dim {
          size: 3
        }
        dim {
          size: 96
        }
        dim {
          size: 1
        }
      }
    }
  }
  attr {
    key: "shared_name"
    value {
      s: "efficientnet/efficientnet-b0/blocks_1/depthwise_conv2d/depthwise_kernel"
    }
  }
}
node {
  name: "efficientnet/efficientnet-b0/blocks_1/depthwise_conv2d/depthwise_kernel/IsInitialized/VarIsInitializedOp"
  op: "VarIsInitializedOp"
  input: "efficientnet/efficientnet-b0/blocks_1/depthwise_conv2d/depthwise_kernel"
}
node {
  name: "efficientnet/efficientnet-b0/blocks_1/depthwise_conv2d/depthwise_kernel/Assign"
  op: "AssignVariableOp"
  input: "efficientnet/efficientnet-b0/blocks_1/depthwise_conv2d/depthwise_kernel"
  input: "efficientnet/efficientnet-b0/blocks_1/depthwise_conv2d/depthwise_kernel/Initializer/random_normal"
  attr {
    key: "dtype"
    value {
      type: DT_FLOAT
    }
  }
}
node {
  name: "efficientnet/efficientnet-b0/blocks_1/depthwise_conv2d/depthwise_kernel/Read/ReadVariableOp"
  op: "ReadVariableOp"
  input: "efficientnet/efficientnet-b0/blocks_1/depthwise_conv2d/depthwise_kernel"
  attr {
    key: "dtype"
    value {
      type: DT_FLOAT
    }
  }
}
node {
  name: "efficientnet/efficientnet-b0/model/blocks_1/depthwise_conv2d/depthwise/ReadVariableOp"
  op: "ReadVariableOp"
  input: "efficientnet/efficientnet-b0/blocks_1/depthwise_conv2d/depthwise_kernel"
  attr {
    key: "dtype"
    value {
      type: DT_FLOAT
    }
  }
}
node {
  name: "efficientnet/efficientnet-b0/model/blocks_1/depthwise_conv2d/depthwise/Shape"
  op: "Const"
  attr {
    key: "dtype"
    value {
      type: DT_INT32
    }
  }
  attr {
    key: "value"
    value {
      tensor {
        dtype: DT_INT32
        tensor_shape {
          dim {
            size: 4
          }
        }
        tensor_content: "\003\000\000\000\003\000\000\000`\000\000\000\001\000\000\000"
      }
    }
  }
}
node {
  name: "efficientnet/efficientnet-b0/model/blocks_1/depthwise_conv2d/depthwise/dilation_rate"
  op: "Const"
  attr {
    key: "dtype"
    value {
      type: DT_INT32
    }
  }
  attr {
    key: "value"
    value {
      tensor {
        dtype: DT_INT32
        tensor_shape {
          dim {
            size: 2
          }
        }
        tensor_content: "\001\000\000\000\001\000\000\000"
      }
    }
  }
}
node {
  name: "efficientnet/efficientnet-b0/model/blocks_1/depthwise_conv2d/depthwise"
  op: "DepthwiseConv2dNative"
  input: "efficientnet/efficientnet-b0/model/blocks_1/IdentityN"
  input: "efficientnet/efficientnet-b0/model/blocks_1/depthwise_conv2d/depthwise/ReadVariableOp"
  attr {
    key: "T"
    value {
      type: DT_FLOAT
    }
  }
  attr {
    key: "data_format"
    value {
      s: "NHWC"
    }
  }
  attr {
    key: "dilations"
    value {
      list {
        i: 1
        i: 1
        i: 1
        i: 1
      }
    }
  }
  attr {
    key: "explicit_paddings"
    value {
      list {
      }
    }
  }
  attr {
    key: "padding"
    value {
      s: "SAME"
    }
  }
  attr {
    key: "strides"
    value {
      list {
        i: 1
        i: 2
        i: 2
        i: 1
      }
    }
  }
}
node {
  name: "efficientnet/efficientnet-b0/blocks_1/tpu_batch_normalization_1/gamma/Initializer/ones"
  op: "Const"
  attr {
    key: "_class"
    value {
      list {
        s: "loc:@efficientnet/efficientnet-b0/blocks_1/tpu_batch_normalization_1/gamma"
      }
    }
  }
  attr {
    key: "dtype"
    value {
      type: DT_FLOAT
    }
  }
  attr {
    key: "value"
    value {
      tensor {
        dtype: DT_FLOAT
        tensor_shape {
          dim {
            size: 96
          }
        }
        float_val: 1.0
      }
    }
  }
}
node {
  name: "efficientnet/efficientnet-b0/blocks_1/tpu_batch_normalization_1/gamma"
  op: "VarHandleOp"
  attr {
    key: "_class"
    value {
      list {
        s: "loc:@efficientnet/efficientnet-b0/blocks_1/tpu_batch_normalization_1/gamma"
      }
    }
  }
  attr {
    key: "allowed_devices"
    value {
      list {
      }
    }
  }
  attr {
    key: "container"
    value {
      s: ""
    }
  }
  attr {
    key: "dtype"
    value {
      type: DT_FLOAT
    }
  }
  attr {
    key: "shape"
    value {
      shape {
        dim {
          size: 96
        }
      }
    }
  }
  attr {
    key: "shared_name"
    value {
      s: "efficientnet/efficientnet-b0/blocks_1/tpu_batch_normalization_1/gamma"
    }
  }
}
node {
  name: "efficientnet/efficientnet-b0/blocks_1/tpu_batch_normalization_1/gamma/IsInitialized/VarIsInitializedOp"
  op: "VarIsInitializedOp"
  input: "efficientnet/efficientnet-b0/blocks_1/tpu_batch_normalization_1/gamma"
}
node {
  name: "efficientnet/efficientnet-b0/blocks_1/tpu_batch_normalization_1/gamma/Assign"
  op: "AssignVariableOp"
  input: "efficientnet/efficientnet-b0/blocks_1/tpu_batch_normalization_1/gamma"
  input: "efficientnet/efficientnet-b0/blocks_1/tpu_batch_normalization_1/gamma/Initializer/ones"
  attr {
    key: "dtype"
    value {
      type: DT_FLOAT
    }
  }
}
node {
  name: "efficientnet/efficientnet-b0/blocks_1/tpu_batch_normalization_1/gamma/Read/ReadVariableOp"
  op: "ReadVariableOp"
  input: "efficientnet/efficientnet-b0/blocks_1/tpu_batch_normalization_1/gamma"
  attr {
    key: "dtype"
    value {
      type: DT_FLOAT
    }
  }
}
node {
  name: "efficientnet/efficientnet-b0/blocks_1/tpu_batch_normalization_1/beta/Initializer/zeros"
  op: "Const"
  attr {
    key: "_class"
    value {
      list {
        s: "loc:@efficientnet/efficientnet-b0/blocks_1/tpu_batch_normalization_1/beta"
      }
    }
  }
  attr {
    key: "dtype"
    value {
      type: DT_FLOAT
    }
  }
  attr {
    key: "value"
    value {
      tensor {
        dtype: DT_FLOAT
        tensor_shape {
          dim {
            size: 96
          }
        }
        float_val: 0.0
      }
    }
  }
}
node {
  name: "efficientnet/efficientnet-b0/blocks_1/tpu_batch_normalization_1/beta"
  op: "VarHandleOp"
  attr {
    key: "_class"
    value {
      list {
        s: "loc:@efficientnet/efficientnet-b0/blocks_1/tpu_batch_normalization_1/beta"
      }
    }
  }
  attr {
    key: "allowed_devices"
    value {
      list {
      }
    }
  }
  attr {
    key: "container"
    value {
      s: ""
    }
  }
  attr {
    key: "dtype"
    value {
      type: DT_FLOAT
    }
  }
  attr {
    key: "shape"
    value {
      shape {
        dim {
          size: 96
        }
      }
    }
  }
  attr {
    key: "shared_name"
    value {
      s: "efficientnet/efficientnet-b0/blocks_1/tpu_batch_normalization_1/beta"
    }
  }
}
node {
  name: "efficientnet/efficientnet-b0/blocks_1/tpu_batch_normalization_1/beta/IsInitialized/VarIsInitializedOp"
  op: "VarIsInitializedOp"
  input: "efficientnet/efficientnet-b0/blocks_1/tpu_batch_normalization_1/beta"
}
node {
  name: "efficientnet/efficientnet-b0/blocks_1/tpu_batch_normalization_1/beta/Assign"
  op: "AssignVariableOp"
  input: "efficientnet/efficientnet-b0/blocks_1/tpu_batch_normalization_1/beta"
  input: "efficientnet/efficientnet-b0/blocks_1/tpu_batch_normalization_1/beta/Initializer/zeros"
  attr {
    key: "dtype"
    value {
      type: DT_FLOAT
    }
  }
}
node {
  name: "efficientnet/efficientnet-b0/blocks_1/tpu_batch_normalization_1/beta/Read/ReadVariableOp"
  op: "ReadVariableOp"
  input: "efficientnet/efficientnet-b0/blocks_1/tpu_batch_normalization_1/beta"
  attr {
    key: "dtype"
    value {
      type: DT_FLOAT
    }
  }
}
node {
  name: "efficientnet/efficientnet-b0/blocks_1/tpu_batch_normalization_1/moving_mean/Initializer/zeros"
  op: "Const"
  attr {
    key: "_class"
    value {
      list {
        s: "loc:@efficientnet/efficientnet-b0/blocks_1/tpu_batch_normalization_1/moving_mean"
      }
    }
  }
  attr {
    key: "dtype"
    value {
      type: DT_FLOAT
    }
  }
  attr {
    key: "value"
    value {
      tensor {
        dtype: DT_FLOAT
        tensor_shape {
          dim {
            size: 96
          }
        }
        float_val: 0.0
      }
    }
  }
}
node {
  name: "efficientnet/efficientnet-b0/blocks_1/tpu_batch_normalization_1/moving_mean"
  op: "VarHandleOp"
  attr {
    key: "_class"
    value {
      list {
        s: "loc:@efficientnet/efficientnet-b0/blocks_1/tpu_batch_normalization_1/moving_mean"
      }
    }
  }
  attr {
    key: "allowed_devices"
    value {
      list {
      }
    }
  }
  attr {
    key: "container"
    value {
      s: ""
    }
  }
  attr {
    key: "dtype"
    value {
      type: DT_FLOAT
    }
  }
  attr {
    key: "shape"
    value {
      shape {
        dim {
          size: 96
        }
      }
    }
  }
  attr {
    key: "shared_name"
    value {
      s: "efficientnet/efficientnet-b0/blocks_1/tpu_batch_normalization_1/moving_mean"
    }
  }
}
node {
  name: "efficientnet/efficientnet-b0/blocks_1/tpu_batch_normalization_1/moving_mean/IsInitialized/VarIsInitializedOp"
  op: "VarIsInitializedOp"
  input: "efficientnet/efficientnet-b0/blocks_1/tpu_batch_normalization_1/moving_mean"
}
node {
  name: "efficientnet/efficientnet-b0/blocks_1/tpu_batch_normalization_1/moving_mean/Assign"
  op: "AssignVariableOp"
  input: "efficientnet/efficientnet-b0/blocks_1/tpu_batch_normalization_1/moving_mean"
  input: "efficientnet/efficientnet-b0/blocks_1/tpu_batch_normalization_1/moving_mean/Initializer/zeros"
  attr {
    key: "dtype"
    value {
      type: DT_FLOAT
    }
  }
}
node {
  name: "efficientnet/efficientnet-b0/blocks_1/tpu_batch_normalization_1/moving_mean/Read/ReadVariableOp"
  op: "ReadVariableOp"
  input: "efficientnet/efficientnet-b0/blocks_1/tpu_batch_normalization_1/moving_mean"
  attr {
    key: "dtype"
    value {
      type: DT_FLOAT
    }
  }
}
node {
  name: "efficientnet/efficientnet-b0/blocks_1/tpu_batch_normalization_1/moving_variance/Initializer/ones"
  op: "Const"
  attr {
    key: "_class"
    value {
      list {
        s: "loc:@efficientnet/efficientnet-b0/blocks_1/tpu_batch_normalization_1/moving_variance"
      }
    }
  }
  attr {
    key: "dtype"
    value {
      type: DT_FLOAT
    }
  }
  attr {
    key: "value"
    value {
      tensor {
        dtype: DT_FLOAT
        tensor_shape {
          dim {
            size: 96
          }
        }
        float_val: 1.0
      }
    }
  }
}
node {
  name: "efficientnet/efficientnet-b0/blocks_1/tpu_batch_normalization_1/moving_variance"
  op: "VarHandleOp"
  attr {
    key: "_class"
    value {
      list {
        s: "loc:@efficientnet/efficientnet-b0/blocks_1/tpu_batch_normalization_1/moving_variance"
      }
    }
  }
  attr {
    key: "allowed_devices"
    value {
      list {
      }
    }
  }
  attr {
    key: "container"
    value {
      s: ""
    }
  }
  attr {
    key: "dtype"
    value {
      type: DT_FLOAT
    }
  }
  attr {
    key: "shape"
    value {
      shape {
        dim {
          size: 96
        }
      }
    }
  }
  attr {
    key: "shared_name"
    value {
      s: "efficientnet/efficientnet-b0/blocks_1/tpu_batch_normalization_1/moving_variance"
    }
  }
}
node {
  name: "efficientnet/efficientnet-b0/blocks_1/tpu_batch_normalization_1/moving_variance/IsInitialized/VarIsInitializedOp"
  op: "VarIsInitializedOp"
  input: "efficientnet/efficientnet-b0/blocks_1/tpu_batch_normalization_1/moving_variance"
}
node {
  name: "efficientnet/efficientnet-b0/blocks_1/tpu_batch_normalization_1/moving_variance/Assign"
  op: "AssignVariableOp"
  input: "efficientnet/efficientnet-b0/blocks_1/tpu_batch_normalization_1/moving_variance"
  input: "efficientnet/efficientnet-b0/blocks_1/tpu_batch_normalization_1/moving_variance/Initializer/ones"
  attr {
    key: "dtype"
    value {
      type: DT_FLOAT
    }
  }
}
node {
  name: "efficientnet/efficientnet-b0/blocks_1/tpu_batch_normalization_1/moving_variance/Read/ReadVariableOp"
  op: "ReadVariableOp"
  input: "efficientnet/efficientnet-b0/blocks_1/tpu_batch_normalization_1/moving_variance"
  attr {
    key: "dtype"
    value {
      type: DT_FLOAT
    }
  }
}
node {
  name: "efficientnet/efficientnet-b0/model/blocks_1/tpu_batch_normalization_1/ReadVariableOp"
  op: "ReadVariableOp"
  input: "efficientnet/efficientnet-b0/blocks_1/tpu_batch_normalization_1/gamma"
  attr {
    key: "dtype"
    value {
      type: DT_FLOAT
    }
  }
}
node {
  name: "efficientnet/efficientnet-b0/model/blocks_1/tpu_batch_normalization_1/ReadVariableOp_1"
  op: "ReadVariableOp"
  input: "efficientnet/efficientnet-b0/blocks_1/tpu_batch_normalization_1/beta"
  attr {
    key: "dtype"
    value {
      type: DT_FLOAT
    }
  }
}
node {
  name: "efficientnet/efficientnet-b0/model/blocks_1/tpu_batch_normalization_1/FusedBatchNormV3/ReadVariableOp"
  op: "ReadVariableOp"
  input: "efficientnet/efficientnet-b0/blocks_1/tpu_batch_normalization_1/moving_mean"
  attr {
    key: "dtype"
    value {
      type: DT_FLOAT
    }
  }
}
node {
  name: "efficientnet/efficientnet-b0/model/blocks_1/tpu_batch_normalization_1/FusedBatchNormV3/ReadVariableOp_1"
  op: "ReadVariableOp"
  input: "efficientnet/efficientnet-b0/blocks_1/tpu_batch_normalization_1/moving_variance"
  attr {
    key: "dtype"
    value {
      type: DT_FLOAT
    }
  }
}
node {
  name: "efficientnet/efficientnet-b0/model/blocks_1/tpu_batch_normalization_1/FusedBatchNormV3"
  op: "FusedBatchNormV3"
  input: "efficientnet/efficientnet-b0/model/blocks_1/depthwise_conv2d/depthwise"
  input: "efficientnet/efficientnet-b0/model/blocks_1/tpu_batch_normalization_1/ReadVariableOp"
  input: "efficientnet/efficientnet-b0/model/blocks_1/tpu_batch_normalization_1/ReadVariableOp_1"
  input: "efficientnet/efficientnet-b0/model/blocks_1/tpu_batch_normalization_1/FusedBatchNormV3/ReadVariableOp"
  input: "efficientnet/efficientnet-b0/model/blocks_1/tpu_batch_normalization_1/FusedBatchNormV3/ReadVariableOp_1"
  attr {
    key: "T"
    value {
      type: DT_FLOAT
    }
  }
  attr {
    key: "U"
    value {
      type: DT_FLOAT
    }
  }
  attr {
    key: "data_format"
    value {
      s: "NHWC"
    }
  }
  attr {
    key: "epsilon"
    value {
      f: 0.0010000000474974513
    }
  }
  attr {
    key: "exponential_avg_factor"
    value {
      f: 1.0
    }
  }
  attr {
    key: "is_training"
    value {
      b: false
    }
  }
}
node {
  name: "efficientnet/efficientnet-b0/model/blocks_1/Sigmoid_1"
  op: "Sigmoid"
  input: "efficientnet/efficientnet-b0/model/blocks_1/tpu_batch_normalization_1/FusedBatchNormV3"
  attr {
    key: "T"
    value {
      type: DT_FLOAT
    }
  }
}
node {
  name: "efficientnet/efficientnet-b0/model/blocks_1/mul_1"
  op: "Mul"
  input: "efficientnet/efficientnet-b0/model/blocks_1/tpu_batch_normalization_1/FusedBatchNormV3"
  input: "efficientnet/efficientnet-b0/model/blocks_1/Sigmoid_1"
  attr {
    key: "T"
    value {
      type: DT_FLOAT
    }
  }
}
node {
  name: "efficientnet/efficientnet-b0/model/blocks_1/Identity_1"
  op: "Identity"
  input: "efficientnet/efficientnet-b0/model/blocks_1/mul_1"
  attr {
    key: "T"
    value {
      type: DT_FLOAT
    }
  }
}
node {
  name: "efficientnet/efficientnet-b0/model/blocks_1/IdentityN_1"
  op: "IdentityN"
  input: "efficientnet/efficientnet-b0/model/blocks_1/mul_1"
  input: "efficientnet/efficientnet-b0/model/blocks_1/tpu_batch_normalization_1/FusedBatchNormV3"
  attr {
    key: "T"
    value {
      list {
        type: DT_FLOAT
        type: DT_FLOAT
      }
    }
  }
  attr {
    key: "_gradient_op_type"
    value {
      s: "CustomGradient-37512"
    }
  }
}
node {
  name: "efficientnet/efficientnet-b0/model/blocks_1/se/Mean/reduction_indices"
  op: "Const"
  attr {
    key: "dtype"
    value {
      type: DT_INT32
    }
  }
  attr {
    key: "value"
    value {
      tensor {
        dtype: DT_INT32
        tensor_shape {
          dim {
            size: 2
          }
        }
        tensor_content: "\001\000\000\000\002\000\000\000"
      }
    }
  }
}
node {
  name: "efficientnet/efficientnet-b0/model/blocks_1/se/Mean"
  op: "Mean"
  input: "efficientnet/efficientnet-b0/model/blocks_1/IdentityN_1"
  input: "efficientnet/efficientnet-b0/model/blocks_1/se/Mean/reduction_indices"
  attr {
    key: "T"
    value {
      type: DT_FLOAT
    }
  }
  attr {
    key: "Tidx"
    value {
      type: DT_INT32
    }
  }
  attr {
    key: "keep_dims"
    value {
      b: true
    }
  }
}
node {
  name: "efficientnet/efficientnet-b0/blocks_1/se/conv2d/kernel/Initializer/random_normal/shape"
  op: "Const"
  attr {
    key: "_class"
    value {
      list {
        s: "loc:@efficientnet/efficientnet-b0/blocks_1/se/conv2d/kernel"
      }
    }
  }
  attr {
    key: "dtype"
    value {
      type: DT_INT32
    }
  }
  attr {
    key: "value"
    value {
      tensor {
        dtype: DT_INT32
        tensor_shape {
          dim {
            size: 4
          }
        }
        tensor_content: "\001\000\000\000\001\000\000\000`\000\000\000\004\000\000\000"
      }
    }
  }
}
node {
  name: "efficientnet/efficientnet-b0/blocks_1/se/conv2d/kernel/Initializer/random_normal/mean"
  op: "Const"
  attr {
    key: "_class"
    value {
      list {
        s: "loc:@efficientnet/efficientnet-b0/blocks_1/se/conv2d/kernel"
      }
    }
  }
  attr {
    key: "dtype"
    value {
      type: DT_FLOAT
    }
  }
  attr {
    key: "value"
    value {
      tensor {
        dtype: DT_FLOAT
        tensor_shape {
        }
        float_val: 0.0
      }
    }
  }
}
node {
  name: "efficientnet/efficientnet-b0/blocks_1/se/conv2d/kernel/Initializer/random_normal/stddev"
  op: "Const"
  attr {
    key: "_class"
    value {
      list {
        s: "loc:@efficientnet/efficientnet-b0/blocks_1/se/conv2d/kernel"
      }
    }
  }
  attr {
    key: "dtype"
    value {
      type: DT_FLOAT
    }
  }
  attr {
    key: "value"
    value {
      tensor {
        dtype: DT_FLOAT
        tensor_shape {
        }
        float_val: 0.7071067690849304
      }
    }
  }
}
node {
  name: "efficientnet/efficientnet-b0/blocks_1/se/conv2d/kernel/Initializer/random_normal/RandomStandardNormal"
  op: "RandomStandardNormal"
  input: "efficientnet/efficientnet-b0/blocks_1/se/conv2d/kernel/Initializer/random_normal/shape"
  attr {
    key: "T"
    value {
      type: DT_INT32
    }
  }
  attr {
    key: "_class"
    value {
      list {
        s: "loc:@efficientnet/efficientnet-b0/blocks_1/se/conv2d/kernel"
      }
    }
  }
  attr {
    key: "dtype"
    value {
      type: DT_FLOAT
    }
  }
  attr {
    key: "seed"
    value {
      i: 0
    }
  }
  attr {
    key: "seed2"
    value {
      i: 0
    }
  }
}
node {
  name: "efficientnet/efficientnet-b0/blocks_1/se/conv2d/kernel/Initializer/random_normal/mul"
  op: "Mul"
  input: "efficientnet/efficientnet-b0/blocks_1/se/conv2d/kernel/Initializer/random_normal/RandomStandardNormal"
  input: "efficientnet/efficientnet-b0/blocks_1/se/conv2d/kernel/Initializer/random_normal/stddev"
  attr {
    key: "T"
    value {
      type: DT_FLOAT
    }
  }
  attr {
    key: "_class"
    value {
      list {
        s: "loc:@efficientnet/efficientnet-b0/blocks_1/se/conv2d/kernel"
      }
    }
  }
}
node {
  name: "efficientnet/efficientnet-b0/blocks_1/se/conv2d/kernel/Initializer/random_normal"
  op: "AddV2"
  input: "efficientnet/efficientnet-b0/blocks_1/se/conv2d/kernel/Initializer/random_normal/mul"
  input: "efficientnet/efficientnet-b0/blocks_1/se/conv2d/kernel/Initializer/random_normal/mean"
  attr {
    key: "T"
    value {
      type: DT_FLOAT
    }
  }
  attr {
    key: "_class"
    value {
      list {
        s: "loc:@efficientnet/efficientnet-b0/blocks_1/se/conv2d/kernel"
      }
    }
  }
}
node {
  name: "efficientnet/efficientnet-b0/blocks_1/se/conv2d/kernel"
  op: "VarHandleOp"
  attr {
    key: "_class"
    value {
      list {
        s: "loc:@efficientnet/efficientnet-b0/blocks_1/se/conv2d/kernel"
      }
    }
  }
  attr {
    key: "allowed_devices"
    value {
      list {
      }
    }
  }
  attr {
    key: "container"
    value {
      s: ""
    }
  }
  attr {
    key: "dtype"
    value {
      type: DT_FLOAT
    }
  }
  attr {
    key: "shape"
    value {
      shape {
        dim {
          size: 1
        }
        dim {
          size: 1
        }
        dim {
          size: 96
        }
        dim {
          size: 4
        }
      }
    }
  }
  attr {
    key: "shared_name"
    value {
      s: "efficientnet/efficientnet-b0/blocks_1/se/conv2d/kernel"
    }
  }
}
node {
  name: "efficientnet/efficientnet-b0/blocks_1/se/conv2d/kernel/IsInitialized/VarIsInitializedOp"
  op: "VarIsInitializedOp"
  input: "efficientnet/efficientnet-b0/blocks_1/se/conv2d/kernel"
}
node {
  name: "efficientnet/efficientnet-b0/blocks_1/se/conv2d/kernel/Assign"
  op: "AssignVariableOp"
  input: "efficientnet/efficientnet-b0/blocks_1/se/conv2d/kernel"
  input: "efficientnet/efficientnet-b0/blocks_1/se/conv2d/kernel/Initializer/random_normal"
  attr {
    key: "dtype"
    value {
      type: DT_FLOAT
    }
  }
}
node {
  name: "efficientnet/efficientnet-b0/blocks_1/se/conv2d/kernel/Read/ReadVariableOp"
  op: "ReadVariableOp"
  input: "efficientnet/efficientnet-b0/blocks_1/se/conv2d/kernel"
  attr {
    key: "dtype"
    value {
      type: DT_FLOAT
    }
  }
}
node {
  name: "efficientnet/efficientnet-b0/blocks_1/se/conv2d/bias/Initializer/zeros"
  op: "Const"
  attr {
    key: "_class"
    value {
      list {
        s: "loc:@efficientnet/efficientnet-b0/blocks_1/se/conv2d/bias"
      }
    }
  }
  attr {
    key: "dtype"
    value {
      type: DT_FLOAT
    }
  }
  attr {
    key: "value"
    value {
      tensor {
        dtype: DT_FLOAT
        tensor_shape {
          dim {
            size: 4
          }
        }
        float_val: 0.0
      }
    }
  }
}
node {
  name: "efficientnet/efficientnet-b0/blocks_1/se/conv2d/bias"
  op: "VarHandleOp"
  attr {
    key: "_class"
    value {
      list {
        s: "loc:@efficientnet/efficientnet-b0/blocks_1/se/conv2d/bias"
      }
    }
  }
  attr {
    key: "allowed_devices"
    value {
      list {
      }
    }
  }
  attr {
    key: "container"
    value {
      s: ""
    }
  }
  attr {
    key: "dtype"
    value {
      type: DT_FLOAT
    }
  }
  attr {
    key: "shape"
    value {
      shape {
        dim {
          size: 4
        }
      }
    }
  }
  attr {
    key: "shared_name"
    value {
      s: "efficientnet/efficientnet-b0/blocks_1/se/conv2d/bias"
    }
  }
}
node {
  name: "efficientnet/efficientnet-b0/blocks_1/se/conv2d/bias/IsInitialized/VarIsInitializedOp"
  op: "VarIsInitializedOp"
  input: "efficientnet/efficientnet-b0/blocks_1/se/conv2d/bias"
}
node {
  name: "efficientnet/efficientnet-b0/blocks_1/se/conv2d/bias/Assign"
  op: "AssignVariableOp"
  input: "efficientnet/efficientnet-b0/blocks_1/se/conv2d/bias"
  input: "efficientnet/efficientnet-b0/blocks_1/se/conv2d/bias/Initializer/zeros"
  attr {
    key: "dtype"
    value {
      type: DT_FLOAT
    }
  }
}
node {
  name: "efficientnet/efficientnet-b0/blocks_1/se/conv2d/bias/Read/ReadVariableOp"
  op: "ReadVariableOp"
  input: "efficientnet/efficientnet-b0/blocks_1/se/conv2d/bias"
  attr {
    key: "dtype"
    value {
      type: DT_FLOAT
    }
  }
}
node {
  name: "efficientnet/efficientnet-b0/model/blocks_1/se/conv2d/Conv2D/ReadVariableOp"
  op: "ReadVariableOp"
  input: "efficientnet/efficientnet-b0/blocks_1/se/conv2d/kernel"
  attr {
    key: "dtype"
    value {
      type: DT_FLOAT
    }
  }
}
node {
  name: "efficientnet/efficientnet-b0/model/blocks_1/se/conv2d/Conv2D"
  op: "Conv2D"
  input: "efficientnet/efficientnet-b0/model/blocks_1/se/Mean"
  input: "efficientnet/efficientnet-b0/model/blocks_1/se/conv2d/Conv2D/ReadVariableOp"
  attr {
    key: "T"
    value {
      type: DT_FLOAT
    }
  }
  attr {
    key: "data_format"
    value {
      s: "NHWC"
    }
  }
  attr {
    key: "dilations"
    value {
      list {
        i: 1
        i: 1
        i: 1
        i: 1
      }
    }
  }
  attr {
    key: "explicit_paddings"
    value {
      list {
      }
    }
  }
  attr {
    key: "padding"
    value {
      s: "SAME"
    }
  }
  attr {
    key: "strides"
    value {
      list {
        i: 1
        i: 1
        i: 1
        i: 1
      }
    }
  }
  attr {
    key: "use_cudnn_on_gpu"
    value {
      b: true
    }
  }
}
node {
  name: "efficientnet/efficientnet-b0/model/blocks_1/se/conv2d/BiasAdd/ReadVariableOp"
  op: "ReadVariableOp"
  input: "efficientnet/efficientnet-b0/blocks_1/se/conv2d/bias"
  attr {
    key: "dtype"
    value {
      type: DT_FLOAT
    }
  }
}
node {
  name: "efficientnet/efficientnet-b0/model/blocks_1/se/conv2d/BiasAdd"
  op: "BiasAdd"
  input: "efficientnet/efficientnet-b0/model/blocks_1/se/conv2d/Conv2D"
  input: "efficientnet/efficientnet-b0/model/blocks_1/se/conv2d/BiasAdd/ReadVariableOp"
  attr {
    key: "T"
    value {
      type: DT_FLOAT
    }
  }
  attr {
    key: "data_format"
    value {
      s: "NHWC"
    }
  }
}
node {
  name: "efficientnet/efficientnet-b0/model/blocks_1/se/Sigmoid"
  op: "Sigmoid"
  input: "efficientnet/efficientnet-b0/model/blocks_1/se/conv2d/BiasAdd"
  attr {
    key: "T"
    value {
      type: DT_FLOAT
    }
  }
}
node {
  name: "efficientnet/efficientnet-b0/model/blocks_1/se/mul"
  op: "Mul"
  input: "efficientnet/efficientnet-b0/model/blocks_1/se/conv2d/BiasAdd"
  input: "efficientnet/efficientnet-b0/model/blocks_1/se/Sigmoid"
  attr {
    key: "T"
    value {
      type: DT_FLOAT
    }
  }
}
node {
  name: "efficientnet/efficientnet-b0/model/blocks_1/se/Identity"
  op: "Identity"
  input: "efficientnet/efficientnet-b0/model/blocks_1/se/mul"
  attr {
    key: "T"
    value {
      type: DT_FLOAT
    }
  }
}
node {
  name: "efficientnet/efficientnet-b0/model/blocks_1/se/IdentityN"
  op: "IdentityN"
  input: "efficientnet/efficientnet-b0/model/blocks_1/se/mul"
  input: "efficientnet/efficientnet-b0/model/blocks_1/se/conv2d/BiasAdd"
  attr {
    key: "T"
    value {
      list {
        type: DT_FLOAT
        type: DT_FLOAT
      }
    }
  }
  attr {
    key: "_gradient_op_type"
    value {
      s: "CustomGradient-37537"
    }
  }
}
node {
  name: "efficientnet/efficientnet-b0/blocks_1/se/conv2d_1/kernel/Initializer/random_normal/shape"
  op: "Const"
  attr {
    key: "_class"
    value {
      list {
        s: "loc:@efficientnet/efficientnet-b0/blocks_1/se/conv2d_1/kernel"
      }
    }
  }
  attr {
    key: "dtype"
    value {
      type: DT_INT32
    }
  }
  attr {
    key: "value"
    value {
      tensor {
        dtype: DT_INT32
        tensor_shape {
          dim {
            size: 4
          }
        }
        tensor_content: "\001\000\000\000\001\000\000\000\004\000\000\000`\000\000\000"
      }
    }
  }
}
node {
  name: "efficientnet/efficientnet-b0/blocks_1/se/conv2d_1/kernel/Initializer/random_normal/mean"
  op: "Const"
  attr {
    key: "_class"
    value {
      list {
        s: "loc:@efficientnet/efficientnet-b0/blocks_1/se/conv2d_1/kernel"
      }
    }
  }
  attr {
    key: "dtype"
    value {
      type: DT_FLOAT
    }
  }
  attr {
    key: "value"
    value {
      tensor {
        dtype: DT_FLOAT
        tensor_shape {
        }
        float_val: 0.0
      }
    }
  }
}
node {
  name: "efficientnet/efficientnet-b0/blocks_1/se/conv2d_1/kernel/Initializer/random_normal/stddev"
  op: "Const"
  attr {
    key: "_class"
    value {
      list {
        s: "loc:@efficientnet/efficientnet-b0/blocks_1/se/conv2d_1/kernel"
      }
    }
  }
  attr {
    key: "dtype"
    value {
      type: DT_FLOAT
    }
  }
  attr {
    key: "value"
    value {
      tensor {
        dtype: DT_FLOAT
        tensor_shape {
        }
        float_val: 0.14433756470680237
      }
    }
  }
}
node {
  name: "efficientnet/efficientnet-b0/blocks_1/se/conv2d_1/kernel/Initializer/random_normal/RandomStandardNormal"
  op: "RandomStandardNormal"
  input: "efficientnet/efficientnet-b0/blocks_1/se/conv2d_1/kernel/Initializer/random_normal/shape"
  attr {
    key: "T"
    value {
      type: DT_INT32
    }
  }
  attr {
    key: "_class"
    value {
      list {
        s: "loc:@efficientnet/efficientnet-b0/blocks_1/se/conv2d_1/kernel"
      }
    }
  }
  attr {
    key: "dtype"
    value {
      type: DT_FLOAT
    }
  }
  attr {
    key: "seed"
    value {
      i: 0
    }
  }
  attr {
    key: "seed2"
    value {
      i: 0
    }
  }
}
node {
  name: "efficientnet/efficientnet-b0/blocks_1/se/conv2d_1/kernel/Initializer/random_normal/mul"
  op: "Mul"
  input: "efficientnet/efficientnet-b0/blocks_1/se/conv2d_1/kernel/Initializer/random_normal/RandomStandardNormal"
  input: "efficientnet/efficientnet-b0/blocks_1/se/conv2d_1/kernel/Initializer/random_normal/stddev"
  attr {
    key: "T"
    value {
      type: DT_FLOAT
    }
  }
  attr {
    key: "_class"
    value {
      list {
        s: "loc:@efficientnet/efficientnet-b0/blocks_1/se/conv2d_1/kernel"
      }
    }
  }
}
node {
  name: "efficientnet/efficientnet-b0/blocks_1/se/conv2d_1/kernel/Initializer/random_normal"
  op: "AddV2"
  input: "efficientnet/efficientnet-b0/blocks_1/se/conv2d_1/kernel/Initializer/random_normal/mul"
  input: "efficientnet/efficientnet-b0/blocks_1/se/conv2d_1/kernel/Initializer/random_normal/mean"
  attr {
    key: "T"
    value {
      type: DT_FLOAT
    }
  }
  attr {
    key: "_class"
    value {
      list {
        s: "loc:@efficientnet/efficientnet-b0/blocks_1/se/conv2d_1/kernel"
      }
    }
  }
}
node {
  name: "efficientnet/efficientnet-b0/blocks_1/se/conv2d_1/kernel"
  op: "VarHandleOp"
  attr {
    key: "_class"
    value {
      list {
        s: "loc:@efficientnet/efficientnet-b0/blocks_1/se/conv2d_1/kernel"
      }
    }
  }
  attr {
    key: "allowed_devices"
    value {
      list {
      }
    }
  }
  attr {
    key: "container"
    value {
      s: ""
    }
  }
  attr {
    key: "dtype"
    value {
      type: DT_FLOAT
    }
  }
  attr {
    key: "shape"
    value {
      shape {
        dim {
          size: 1
        }
        dim {
          size: 1
        }
        dim {
          size: 4
        }
        dim {
          size: 96
        }
      }
    }
  }
  attr {
    key: "shared_name"
    value {
      s: "efficientnet/efficientnet-b0/blocks_1/se/conv2d_1/kernel"
    }
  }
}
node {
  name: "efficientnet/efficientnet-b0/blocks_1/se/conv2d_1/kernel/IsInitialized/VarIsInitializedOp"
  op: "VarIsInitializedOp"
  input: "efficientnet/efficientnet-b0/blocks_1/se/conv2d_1/kernel"
}
node {
  name: "efficientnet/efficientnet-b0/blocks_1/se/conv2d_1/kernel/Assign"
  op: "AssignVariableOp"
  input: "efficientnet/efficientnet-b0/blocks_1/se/conv2d_1/kernel"
  input: "efficientnet/efficientnet-b0/blocks_1/se/conv2d_1/kernel/Initializer/random_normal"
  attr {
    key: "dtype"
    value {
      type: DT_FLOAT
    }
  }
}
node {
  name: "efficientnet/efficientnet-b0/blocks_1/se/conv2d_1/kernel/Read/ReadVariableOp"
  op: "ReadVariableOp"
  input: "efficientnet/efficientnet-b0/blocks_1/se/conv2d_1/kernel"
  attr {
    key: "dtype"
    value {
      type: DT_FLOAT
    }
  }
}
node {
  name: "efficientnet/efficientnet-b0/blocks_1/se/conv2d_1/bias/Initializer/zeros"
  op: "Const"
  attr {
    key: "_class"
    value {
      list {
        s: "loc:@efficientnet/efficientnet-b0/blocks_1/se/conv2d_1/bias"
      }
    }
  }
  attr {
    key: "dtype"
    value {
      type: DT_FLOAT
    }
  }
  attr {
    key: "value"
    value {
      tensor {
        dtype: DT_FLOAT
        tensor_shape {
          dim {
            size: 96
          }
        }
        float_val: 0.0
      }
    }
  }
}
node {
  name: "efficientnet/efficientnet-b0/blocks_1/se/conv2d_1/bias"
  op: "VarHandleOp"
  attr {
    key: "_class"
    value {
      list {
        s: "loc:@efficientnet/efficientnet-b0/blocks_1/se/conv2d_1/bias"
      }
    }
  }
  attr {
    key: "allowed_devices"
    value {
      list {
      }
    }
  }
  attr {
    key: "container"
    value {
      s: ""
    }
  }
  attr {
    key: "dtype"
    value {
      type: DT_FLOAT
    }
  }
  attr {
    key: "shape"
    value {
      shape {
        dim {
          size: 96
        }
      }
    }
  }
  attr {
    key: "shared_name"
    value {
      s: "efficientnet/efficientnet-b0/blocks_1/se/conv2d_1/bias"
    }
  }
}
node {
  name: "efficientnet/efficientnet-b0/blocks_1/se/conv2d_1/bias/IsInitialized/VarIsInitializedOp"
  op: "VarIsInitializedOp"
  input: "efficientnet/efficientnet-b0/blocks_1/se/conv2d_1/bias"
}
node {
  name: "efficientnet/efficientnet-b0/blocks_1/se/conv2d_1/bias/Assign"
  op: "AssignVariableOp"
  input: "efficientnet/efficientnet-b0/blocks_1/se/conv2d_1/bias"
  input: "efficientnet/efficientnet-b0/blocks_1/se/conv2d_1/bias/Initializer/zeros"
  attr {
    key: "dtype"
    value {
      type: DT_FLOAT
    }
  }
}
node {
  name: "efficientnet/efficientnet-b0/blocks_1/se/conv2d_1/bias/Read/ReadVariableOp"
  op: "ReadVariableOp"
  input: "efficientnet/efficientnet-b0/blocks_1/se/conv2d_1/bias"
  attr {
    key: "dtype"
    value {
      type: DT_FLOAT
    }
  }
}
node {
  name: "efficientnet/efficientnet-b0/model/blocks_1/se/conv2d_1/Conv2D/ReadVariableOp"
  op: "ReadVariableOp"
  input: "efficientnet/efficientnet-b0/blocks_1/se/conv2d_1/kernel"
  attr {
    key: "dtype"
    value {
      type: DT_FLOAT
    }
  }
}
node {
  name: "efficientnet/efficientnet-b0/model/blocks_1/se/conv2d_1/Conv2D"
  op: "Conv2D"
  input: "efficientnet/efficientnet-b0/model/blocks_1/se/IdentityN"
  input: "efficientnet/efficientnet-b0/model/blocks_1/se/conv2d_1/Conv2D/ReadVariableOp"
  attr {
    key: "T"
    value {
      type: DT_FLOAT
    }
  }
  attr {
    key: "data_format"
    value {
      s: "NHWC"
    }
  }
  attr {
    key: "dilations"
    value {
      list {
        i: 1
        i: 1
        i: 1
        i: 1
      }
    }
  }
  attr {
    key: "explicit_paddings"
    value {
      list {
      }
    }
  }
  attr {
    key: "padding"
    value {
      s: "SAME"
    }
  }
  attr {
    key: "strides"
    value {
      list {
        i: 1
        i: 1
        i: 1
        i: 1
      }
    }
  }
  attr {
    key: "use_cudnn_on_gpu"
    value {
      b: true
    }
  }
}
node {
  name: "efficientnet/efficientnet-b0/model/blocks_1/se/conv2d_1/BiasAdd/ReadVariableOp"
  op: "ReadVariableOp"
  input: "efficientnet/efficientnet-b0/blocks_1/se/conv2d_1/bias"
  attr {
    key: "dtype"
    value {
      type: DT_FLOAT
    }
  }
}
node {
  name: "efficientnet/efficientnet-b0/model/blocks_1/se/conv2d_1/BiasAdd"
  op: "BiasAdd"
  input: "efficientnet/efficientnet-b0/model/blocks_1/se/conv2d_1/Conv2D"
  input: "efficientnet/efficientnet-b0/model/blocks_1/se/conv2d_1/BiasAdd/ReadVariableOp"
  attr {
    key: "T"
    value {
      type: DT_FLOAT
    }
  }
  attr {
    key: "data_format"
    value {
      s: "NHWC"
    }
  }
}
node {
  name: "efficientnet/efficientnet-b0/model/blocks_1/se/Sigmoid_1"
  op: "Sigmoid"
  input: "efficientnet/efficientnet-b0/model/blocks_1/se/conv2d_1/BiasAdd"
  attr {
    key: "T"
    value {
      type: DT_FLOAT
    }
  }
}
node {
  name: "efficientnet/efficientnet-b0/model/blocks_1/se/mul_1"
  op: "Mul"
  input: "efficientnet/efficientnet-b0/model/blocks_1/se/Sigmoid_1"
  input: "efficientnet/efficientnet-b0/model/blocks_1/IdentityN_1"
  attr {
    key: "T"
    value {
      type: DT_FLOAT
    }
  }
}
node {
  name: "efficientnet/efficientnet-b0/blocks_1/conv2d_1/kernel/Initializer/random_normal/shape"
  op: "Const"
  attr {
    key: "_class"
    value {
      list {
        s: "loc:@efficientnet/efficientnet-b0/blocks_1/conv2d_1/kernel"
      }
    }
  }
  attr {
    key: "dtype"
    value {
      type: DT_INT32
    }
  }
  attr {
    key: "value"
    value {
      tensor {
        dtype: DT_INT32
        tensor_shape {
          dim {
            size: 4
          }
        }
        tensor_content: "\001\000\000\000\001\000\000\000`\000\000\000\030\000\000\000"
      }
    }
  }
}
node {
  name: "efficientnet/efficientnet-b0/blocks_1/conv2d_1/kernel/Initializer/random_normal/mean"
  op: "Const"
  attr {
    key: "_class"
    value {
      list {
        s: "loc:@efficientnet/efficientnet-b0/blocks_1/conv2d_1/kernel"
      }
    }
  }
  attr {
    key: "dtype"
    value {
      type: DT_FLOAT
    }
  }
  attr {
    key: "value"
    value {
      tensor {
        dtype: DT_FLOAT
        tensor_shape {
        }
        float_val: 0.0
      }
    }
  }
}
node {
  name: "efficientnet/efficientnet-b0/blocks_1/conv2d_1/kernel/Initializer/random_normal/stddev"
  op: "Const"
  attr {
    key: "_class"
    value {
      list {
        s: "loc:@efficientnet/efficientnet-b0/blocks_1/conv2d_1/kernel"
      }
    }
  }
  attr {
    key: "dtype"
    value {
      type: DT_FLOAT
    }
  }
  attr {
    key: "value"
    value {
      tensor {
        dtype: DT_FLOAT
        tensor_shape {
        }
        float_val: 0.28867512941360474
      }
    }
  }
}
node {
  name: "efficientnet/efficientnet-b0/blocks_1/conv2d_1/kernel/Initializer/random_normal/RandomStandardNormal"
  op: "RandomStandardNormal"
  input: "efficientnet/efficientnet-b0/blocks_1/conv2d_1/kernel/Initializer/random_normal/shape"
  attr {
    key: "T"
    value {
      type: DT_INT32
    }
  }
  attr {
    key: "_class"
    value {
      list {
        s: "loc:@efficientnet/efficientnet-b0/blocks_1/conv2d_1/kernel"
      }
    }
  }
  attr {
    key: "dtype"
    value {
      type: DT_FLOAT
    }
  }
  attr {
    key: "seed"
    value {
      i: 0
    }
  }
  attr {
    key: "seed2"
    value {
      i: 0
    }
  }
}
node {
  name: "efficientnet/efficientnet-b0/blocks_1/conv2d_1/kernel/Initializer/random_normal/mul"
  op: "Mul"
  input: "efficientnet/efficientnet-b0/blocks_1/conv2d_1/kernel/Initializer/random_normal/RandomStandardNormal"
  input: "efficientnet/efficientnet-b0/blocks_1/conv2d_1/kernel/Initializer/random_normal/stddev"
  attr {
    key: "T"
    value {
      type: DT_FLOAT
    }
  }
  attr {
    key: "_class"
    value {
      list {
        s: "loc:@efficientnet/efficientnet-b0/blocks_1/conv2d_1/kernel"
      }
    }
  }
}
node {
  name: "efficientnet/efficientnet-b0/blocks_1/conv2d_1/kernel/Initializer/random_normal"
  op: "AddV2"
  input: "efficientnet/efficientnet-b0/blocks_1/conv2d_1/kernel/Initializer/random_normal/mul"
  input: "efficientnet/efficientnet-b0/blocks_1/conv2d_1/kernel/Initializer/random_normal/mean"
  attr {
    key: "T"
    value {
      type: DT_FLOAT
    }
  }
  attr {
    key: "_class"
    value {
      list {
        s: "loc:@efficientnet/efficientnet-b0/blocks_1/conv2d_1/kernel"
      }
    }
  }
}
node {
  name: "efficientnet/efficientnet-b0/blocks_1/conv2d_1/kernel"
  op: "VarHandleOp"
  attr {
    key: "_class"
    value {
      list {
        s: "loc:@efficientnet/efficientnet-b0/blocks_1/conv2d_1/kernel"
      }
    }
  }
  attr {
    key: "allowed_devices"
    value {
      list {
      }
    }
  }
  attr {
    key: "container"
    value {
      s: ""
    }
  }
  attr {
    key: "dtype"
    value {
      type: DT_FLOAT
    }
  }
  attr {
    key: "shape"
    value {
      shape {
        dim {
          size: 1
        }
        dim {
          size: 1
        }
        dim {
          size: 96
        }
        dim {
          size: 24
        }
      }
    }
  }
  attr {
    key: "shared_name"
    value {
      s: "efficientnet/efficientnet-b0/blocks_1/conv2d_1/kernel"
    }
  }
}
node {
  name: "efficientnet/efficientnet-b0/blocks_1/conv2d_1/kernel/IsInitialized/VarIsInitializedOp"
  op: "VarIsInitializedOp"
  input: "efficientnet/efficientnet-b0/blocks_1/conv2d_1/kernel"
}
node {
  name: "efficientnet/efficientnet-b0/blocks_1/conv2d_1/kernel/Assign"
  op: "AssignVariableOp"
  input: "efficientnet/efficientnet-b0/blocks_1/conv2d_1/kernel"
  input: "efficientnet/efficientnet-b0/blocks_1/conv2d_1/kernel/Initializer/random_normal"
  attr {
    key: "dtype"
    value {
      type: DT_FLOAT
    }
  }
}
node {
  name: "efficientnet/efficientnet-b0/blocks_1/conv2d_1/kernel/Read/ReadVariableOp"
  op: "ReadVariableOp"
  input: "efficientnet/efficientnet-b0/blocks_1/conv2d_1/kernel"
  attr {
    key: "dtype"
    value {
      type: DT_FLOAT
    }
  }
}
node {
  name: "efficientnet/efficientnet-b0/model/blocks_1/conv2d_1/Conv2D/ReadVariableOp"
  op: "ReadVariableOp"
  input: "efficientnet/efficientnet-b0/blocks_1/conv2d_1/kernel"
  attr {
    key: "dtype"
    value {
      type: DT_FLOAT
    }
  }
}
node {
  name: "efficientnet/efficientnet-b0/model/blocks_1/conv2d_1/Conv2D"
  op: "Conv2D"
  input: "efficientnet/efficientnet-b0/model/blocks_1/se/mul_1"
  input: "efficientnet/efficientnet-b0/model/blocks_1/conv2d_1/Conv2D/ReadVariableOp"
  attr {
    key: "T"
    value {
      type: DT_FLOAT
    }
  }
  attr {
    key: "data_format"
    value {
      s: "NHWC"
    }
  }
  attr {
    key: "dilations"
    value {
      list {
        i: 1
        i: 1
        i: 1
        i: 1
      }
    }
  }
  attr {
    key: "explicit_paddings"
    value {
      list {
      }
    }
  }
  attr {
    key: "padding"
    value {
      s: "SAME"
    }
  }
  attr {
    key: "strides"
    value {
      list {
        i: 1
        i: 1
        i: 1
        i: 1
      }
    }
  }
  attr {
    key: "use_cudnn_on_gpu"
    value {
      b: true
    }
  }
}
node {
  name: "efficientnet/efficientnet-b0/blocks_1/tpu_batch_normalization_2/gamma/Initializer/ones"
  op: "Const"
  attr {
    key: "_class"
    value {
      list {
        s: "loc:@efficientnet/efficientnet-b0/blocks_1/tpu_batch_normalization_2/gamma"
      }
    }
  }
  attr {
    key: "dtype"
    value {
      type: DT_FLOAT
    }
  }
  attr {
    key: "value"
    value {
      tensor {
        dtype: DT_FLOAT
        tensor_shape {
          dim {
            size: 24
          }
        }
        float_val: 1.0
      }
    }
  }
}
node {
  name: "efficientnet/efficientnet-b0/blocks_1/tpu_batch_normalization_2/gamma"
  op: "VarHandleOp"
  attr {
    key: "_class"
    value {
      list {
        s: "loc:@efficientnet/efficientnet-b0/blocks_1/tpu_batch_normalization_2/gamma"
      }
    }
  }
  attr {
    key: "allowed_devices"
    value {
      list {
      }
    }
  }
  attr {
    key: "container"
    value {
      s: ""
    }
  }
  attr {
    key: "dtype"
    value {
      type: DT_FLOAT
    }
  }
  attr {
    key: "shape"
    value {
      shape {
        dim {
          size: 24
        }
      }
    }
  }
  attr {
    key: "shared_name"
    value {
      s: "efficientnet/efficientnet-b0/blocks_1/tpu_batch_normalization_2/gamma"
    }
  }
}
node {
  name: "efficientnet/efficientnet-b0/blocks_1/tpu_batch_normalization_2/gamma/IsInitialized/VarIsInitializedOp"
  op: "VarIsInitializedOp"
  input: "efficientnet/efficientnet-b0/blocks_1/tpu_batch_normalization_2/gamma"
}
node {
  name: "efficientnet/efficientnet-b0/blocks_1/tpu_batch_normalization_2/gamma/Assign"
  op: "AssignVariableOp"
  input: "efficientnet/efficientnet-b0/blocks_1/tpu_batch_normalization_2/gamma"
  input: "efficientnet/efficientnet-b0/blocks_1/tpu_batch_normalization_2/gamma/Initializer/ones"
  attr {
    key: "dtype"
    value {
      type: DT_FLOAT
    }
  }
}
node {
  name: "efficientnet/efficientnet-b0/blocks_1/tpu_batch_normalization_2/gamma/Read/ReadVariableOp"
  op: "ReadVariableOp"
  input: "efficientnet/efficientnet-b0/blocks_1/tpu_batch_normalization_2/gamma"
  attr {
    key: "dtype"
    value {
      type: DT_FLOAT
    }
  }
}
node {
  name: "efficientnet/efficientnet-b0/blocks_1/tpu_batch_normalization_2/beta/Initializer/zeros"
  op: "Const"
  attr {
    key: "_class"
    value {
      list {
        s: "loc:@efficientnet/efficientnet-b0/blocks_1/tpu_batch_normalization_2/beta"
      }
    }
  }
  attr {
    key: "dtype"
    value {
      type: DT_FLOAT
    }
  }
  attr {
    key: "value"
    value {
      tensor {
        dtype: DT_FLOAT
        tensor_shape {
          dim {
            size: 24
          }
        }
        float_val: 0.0
      }
    }
  }
}
node {
  name: "efficientnet/efficientnet-b0/blocks_1/tpu_batch_normalization_2/beta"
  op: "VarHandleOp"
  attr {
    key: "_class"
    value {
      list {
        s: "loc:@efficientnet/efficientnet-b0/blocks_1/tpu_batch_normalization_2/beta"
      }
    }
  }
  attr {
    key: "allowed_devices"
    value {
      list {
      }
    }
  }
  attr {
    key: "container"
    value {
      s: ""
    }
  }
  attr {
    key: "dtype"
    value {
      type: DT_FLOAT
    }
  }
  attr {
    key: "shape"
    value {
      shape {
        dim {
          size: 24
        }
      }
    }
  }
  attr {
    key: "shared_name"
    value {
      s: "efficientnet/efficientnet-b0/blocks_1/tpu_batch_normalization_2/beta"
    }
  }
}
node {
  name: "efficientnet/efficientnet-b0/blocks_1/tpu_batch_normalization_2/beta/IsInitialized/VarIsInitializedOp"
  op: "VarIsInitializedOp"
  input: "efficientnet/efficientnet-b0/blocks_1/tpu_batch_normalization_2/beta"
}
node {
  name: "efficientnet/efficientnet-b0/blocks_1/tpu_batch_normalization_2/beta/Assign"
  op: "AssignVariableOp"
  input: "efficientnet/efficientnet-b0/blocks_1/tpu_batch_normalization_2/beta"
  input: "efficientnet/efficientnet-b0/blocks_1/tpu_batch_normalization_2/beta/Initializer/zeros"
  attr {
    key: "dtype"
    value {
      type: DT_FLOAT
    }
  }
}
node {
  name: "efficientnet/efficientnet-b0/blocks_1/tpu_batch_normalization_2/beta/Read/ReadVariableOp"
  op: "ReadVariableOp"
  input: "efficientnet/efficientnet-b0/blocks_1/tpu_batch_normalization_2/beta"
  attr {
    key: "dtype"
    value {
      type: DT_FLOAT
    }
  }
}
node {
  name: "efficientnet/efficientnet-b0/blocks_1/tpu_batch_normalization_2/moving_mean/Initializer/zeros"
  op: "Const"
  attr {
    key: "_class"
    value {
      list {
        s: "loc:@efficientnet/efficientnet-b0/blocks_1/tpu_batch_normalization_2/moving_mean"
      }
    }
  }
  attr {
    key: "dtype"
    value {
      type: DT_FLOAT
    }
  }
  attr {
    key: "value"
    value {
      tensor {
        dtype: DT_FLOAT
        tensor_shape {
          dim {
            size: 24
          }
        }
        float_val: 0.0
      }
    }
  }
}
node {
  name: "efficientnet/efficientnet-b0/blocks_1/tpu_batch_normalization_2/moving_mean"
  op: "VarHandleOp"
  attr {
    key: "_class"
    value {
      list {
        s: "loc:@efficientnet/efficientnet-b0/blocks_1/tpu_batch_normalization_2/moving_mean"
      }
    }
  }
  attr {
    key: "allowed_devices"
    value {
      list {
      }
    }
  }
  attr {
    key: "container"
    value {
      s: ""
    }
  }
  attr {
    key: "dtype"
    value {
      type: DT_FLOAT
    }
  }
  attr {
    key: "shape"
    value {
      shape {
        dim {
          size: 24
        }
      }
    }
  }
  attr {
    key: "shared_name"
    value {
      s: "efficientnet/efficientnet-b0/blocks_1/tpu_batch_normalization_2/moving_mean"
    }
  }
}
node {
  name: "efficientnet/efficientnet-b0/blocks_1/tpu_batch_normalization_2/moving_mean/IsInitialized/VarIsInitializedOp"
  op: "VarIsInitializedOp"
  input: "efficientnet/efficientnet-b0/blocks_1/tpu_batch_normalization_2/moving_mean"
}
node {
  name: "efficientnet/efficientnet-b0/blocks_1/tpu_batch_normalization_2/moving_mean/Assign"
  op: "AssignVariableOp"
  input: "efficientnet/efficientnet-b0/blocks_1/tpu_batch_normalization_2/moving_mean"
  input: "efficientnet/efficientnet-b0/blocks_1/tpu_batch_normalization_2/moving_mean/Initializer/zeros"
  attr {
    key: "dtype"
    value {
      type: DT_FLOAT
    }
  }
}
node {
  name: "efficientnet/efficientnet-b0/blocks_1/tpu_batch_normalization_2/moving_mean/Read/ReadVariableOp"
  op: "ReadVariableOp"
  input: "efficientnet/efficientnet-b0/blocks_1/tpu_batch_normalization_2/moving_mean"
  attr {
    key: "dtype"
    value {
      type: DT_FLOAT
    }
  }
}
node {
  name: "efficientnet/efficientnet-b0/blocks_1/tpu_batch_normalization_2/moving_variance/Initializer/ones"
  op: "Const"
  attr {
    key: "_class"
    value {
      list {
        s: "loc:@efficientnet/efficientnet-b0/blocks_1/tpu_batch_normalization_2/moving_variance"
      }
    }
  }
  attr {
    key: "dtype"
    value {
      type: DT_FLOAT
    }
  }
  attr {
    key: "value"
    value {
      tensor {
        dtype: DT_FLOAT
        tensor_shape {
          dim {
            size: 24
          }
        }
        float_val: 1.0
      }
    }
  }
}
node {
  name: "efficientnet/efficientnet-b0/blocks_1/tpu_batch_normalization_2/moving_variance"
  op: "VarHandleOp"
  attr {
    key: "_class"
    value {
      list {
        s: "loc:@efficientnet/efficientnet-b0/blocks_1/tpu_batch_normalization_2/moving_variance"
      }
    }
  }
  attr {
    key: "allowed_devices"
    value {
      list {
      }
    }
  }
  attr {
    key: "container"
    value {
      s: ""
    }
  }
  attr {
    key: "dtype"
    value {
      type: DT_FLOAT
    }
  }
  attr {
    key: "shape"
    value {
      shape {
        dim {
          size: 24
        }
      }
    }
  }
  attr {
    key: "shared_name"
    value {
      s: "efficientnet/efficientnet-b0/blocks_1/tpu_batch_normalization_2/moving_variance"
    }
  }
}
node {
  name: "efficientnet/efficientnet-b0/blocks_1/tpu_batch_normalization_2/moving_variance/IsInitialized/VarIsInitializedOp"
  op: "VarIsInitializedOp"
  input: "efficientnet/efficientnet-b0/blocks_1/tpu_batch_normalization_2/moving_variance"
}
node {
  name: "efficientnet/efficientnet-b0/blocks_1/tpu_batch_normalization_2/moving_variance/Assign"
  op: "AssignVariableOp"
  input: "efficientnet/efficientnet-b0/blocks_1/tpu_batch_normalization_2/moving_variance"
  input: "efficientnet/efficientnet-b0/blocks_1/tpu_batch_normalization_2/moving_variance/Initializer/ones"
  attr {
    key: "dtype"
    value {
      type: DT_FLOAT
    }
  }
}
node {
  name: "efficientnet/efficientnet-b0/blocks_1/tpu_batch_normalization_2/moving_variance/Read/ReadVariableOp"
  op: "ReadVariableOp"
  input: "efficientnet/efficientnet-b0/blocks_1/tpu_batch_normalization_2/moving_variance"
  attr {
    key: "dtype"
    value {
      type: DT_FLOAT
    }
  }
}
node {
  name: "efficientnet/efficientnet-b0/model/blocks_1/tpu_batch_normalization_2/ReadVariableOp"
  op: "ReadVariableOp"
  input: "efficientnet/efficientnet-b0/blocks_1/tpu_batch_normalization_2/gamma"
  attr {
    key: "dtype"
    value {
      type: DT_FLOAT
    }
  }
}
node {
  name: "efficientnet/efficientnet-b0/model/blocks_1/tpu_batch_normalization_2/ReadVariableOp_1"
  op: "ReadVariableOp"
  input: "efficientnet/efficientnet-b0/blocks_1/tpu_batch_normalization_2/beta"
  attr {
    key: "dtype"
    value {
      type: DT_FLOAT
    }
  }
}
node {
  name: "efficientnet/efficientnet-b0/model/blocks_1/tpu_batch_normalization_2/FusedBatchNormV3/ReadVariableOp"
  op: "ReadVariableOp"
  input: "efficientnet/efficientnet-b0/blocks_1/tpu_batch_normalization_2/moving_mean"
  attr {
    key: "dtype"
    value {
      type: DT_FLOAT
    }
  }
}
node {
  name: "efficientnet/efficientnet-b0/model/blocks_1/tpu_batch_normalization_2/FusedBatchNormV3/ReadVariableOp_1"
  op: "ReadVariableOp"
  input: "efficientnet/efficientnet-b0/blocks_1/tpu_batch_normalization_2/moving_variance"
  attr {
    key: "dtype"
    value {
      type: DT_FLOAT
    }
  }
}
node {
  name: "efficientnet/efficientnet-b0/model/blocks_1/tpu_batch_normalization_2/FusedBatchNormV3"
  op: "FusedBatchNormV3"
  input: "efficientnet/efficientnet-b0/model/blocks_1/conv2d_1/Conv2D"
  input: "efficientnet/efficientnet-b0/model/blocks_1/tpu_batch_normalization_2/ReadVariableOp"
  input: "efficientnet/efficientnet-b0/model/blocks_1/tpu_batch_normalization_2/ReadVariableOp_1"
  input: "efficientnet/efficientnet-b0/model/blocks_1/tpu_batch_normalization_2/FusedBatchNormV3/ReadVariableOp"
  input: "efficientnet/efficientnet-b0/model/blocks_1/tpu_batch_normalization_2/FusedBatchNormV3/ReadVariableOp_1"
  attr {
    key: "T"
    value {
      type: DT_FLOAT
    }
  }
  attr {
    key: "U"
    value {
      type: DT_FLOAT
    }
  }
  attr {
    key: "data_format"
    value {
      s: "NHWC"
    }
  }
  attr {
    key: "epsilon"
    value {
      f: 0.0010000000474974513
    }
  }
  attr {
    key: "exponential_avg_factor"
    value {
      f: 1.0
    }
  }
  attr {
    key: "is_training"
    value {
      b: false
    }
  }
}
node {
  name: "efficientnet/efficientnet-b0/blocks_2/conv2d/kernel/Initializer/random_normal/shape"
  op: "Const"
  attr {
    key: "_class"
    value {
      list {
        s: "loc:@efficientnet/efficientnet-b0/blocks_2/conv2d/kernel"
      }
    }
  }
  attr {
    key: "dtype"
    value {
      type: DT_INT32
    }
  }
  attr {
    key: "value"
    value {
      tensor {
        dtype: DT_INT32
        tensor_shape {
          dim {
            size: 4
          }
        }
        tensor_content: "\001\000\000\000\001\000\000\000\030\000\000\000\220\000\000\000"
      }
    }
  }
}
node {
…
  name: "save/Identity_280"
  op: "Identity"
  input: "save/RestoreV2:280"
  attr {
    key: "T"
    value {
      type: DT_FLOAT
    }
  }
}
node {
  name: "save/AssignVariableOp_280"
  op: "AssignVariableOp"
  input: "efficientnet/efficientnet-b0/blocks_9/conv2d/kernel"
  input: "save/Identity_280"
  attr {
    key: "dtype"
    value {
      type: DT_FLOAT
    }
  }
}
node {
  name: "save/Identity_281"
  op: "Identity"
  input: "save/RestoreV2:281"
  attr {
    key: "T"
    value {
      type: DT_FLOAT
    }
  }
}
node {
  name: "save/AssignVariableOp_281"
  op: "AssignVariableOp"
  input: "efficientnet/efficientnet-b0/blocks_9/conv2d_1/kernel"
  input: "save/Identity_281"
  attr {
    key: "dtype"
    value {
      type: DT_FLOAT
    }
  }
}
node {
  name: "save/Identity_282"
  op: "Identity"
  input: "save/RestoreV2:282"
  attr {
    key: "T"
    value {
      type: DT_FLOAT
    }
  }
}
node {
  name: "save/AssignVariableOp_282"
  op: "AssignVariableOp"
  input: "efficientnet/efficientnet-b0/blocks_9/depthwise_conv2d/depthwise_kernel"
  input: "save/Identity_282"
  attr {
    key: "dtype"
    value {
      type: DT_FLOAT
    }
  }
}
node {
  name: "save/Identity_283"
  op: "Identity"
  input: "save/RestoreV2:283"
  attr {
    key: "T"
    value {
      type: DT_FLOAT
    }
  }
}
node {
  name: "save/AssignVariableOp_283"
  op: "AssignVariableOp"
  input: "efficientnet/efficientnet-b0/blocks_9/se/conv2d/bias"
  input: "save/Identity_283"
  attr {
    key: "dtype"
    value {
      type: DT_FLOAT
    }
  }
}
node {
  name: "save/Identity_284"
  op: "Identity"
  input: "save/RestoreV2:284"
  attr {
    key: "T"
    value {
      type: DT_FLOAT
    }
  }
}
node {
  name: "save/AssignVariableOp_284"
  op: "AssignVariableOp"
  input: "efficientnet/efficientnet-b0/blocks_9/se/conv2d/kernel"
  input: "save/Identity_284"
  attr {
    key: "dtype"
    value {
      type: DT_FLOAT
    }
  }
}
node {
  name: "save/Identity_285"
  op: "Identity"
  input: "save/RestoreV2:285"
  attr {
    key: "T"
    value {
      type: DT_FLOAT
    }
  }
}
node {
  name: "save/AssignVariableOp_285"
  op: "AssignVariableOp"
  input: "efficientnet/efficientnet-b0/blocks_9/se/conv2d_1/bias"
  input: "save/Identity_285"
  attr {
    key: "dtype"
    value {
      type: DT_FLOAT
    }
  }
}
node {
  name: "save/Identity_286"
  op: "Identity"
  input: "save/RestoreV2:286"
  attr {
    key: "T"
    value {
      type: DT_FLOAT
    }
  }
}
node {
  name: "save/AssignVariableOp_286"
  op: "AssignVariableOp"
  input: "efficientnet/efficientnet-b0/blocks_9/se/conv2d_1/kernel"
  input: "save/Identity_286"
  attr {
    key: "dtype"
    value {
      type: DT_FLOAT
    }
  }
}
node {
  name: "save/Identity_287"
  op: "Identity"
  input: "save/RestoreV2:287"
  attr {
    key: "T"
    value {
      type: DT_FLOAT
    }
  }
}
node {
  name: "save/AssignVariableOp_287"
  op: "AssignVariableOp"
  input: "efficientnet/efficientnet-b0/blocks_9/tpu_batch_normalization/beta"
  input: "save/Identity_287"
  attr {
    key: "dtype"
    value {
      type: DT_FLOAT
    }
  }
}
node {
  name: "save/Identity_288"
  op: "Identity"
  input: "save/RestoreV2:288"
  attr {
    key: "T"
    value {
      type: DT_FLOAT
    }
  }
}
node {
  name: "save/AssignVariableOp_288"
  op: "AssignVariableOp"
  input: "efficientnet/efficientnet-b0/blocks_9/tpu_batch_normalization/gamma"
  input: "save/Identity_288"
  attr {
    key: "dtype"
    value {
      type: DT_FLOAT
    }
  }
}
node {
  name: "save/Identity_289"
  op: "Identity"
  input: "save/RestoreV2:289"
  attr {
    key: "T"
    value {
      type: DT_FLOAT
    }
  }
}
node {
  name: "save/AssignVariableOp_289"
  op: "AssignVariableOp"
  input: "efficientnet/efficientnet-b0/blocks_9/tpu_batch_normalization/moving_mean"
  input: "save/Identity_289"
  attr {
    key: "dtype"
    value {
      type: DT_FLOAT
    }
  }
}
node {
  name: "save/Identity_290"
  op: "Identity"
  input: "save/RestoreV2:290"
  attr {
    key: "T"
    value {
      type: DT_FLOAT
    }
  }
}
node {
  name: "save/AssignVariableOp_290"
  op: "AssignVariableOp"
  input: "efficientnet/efficientnet-b0/blocks_9/tpu_batch_normalization/moving_variance"
  input: "save/Identity_290"
  attr {
    key: "dtype"
    value {
      type: DT_FLOAT
    }
  }
}
node {
  name: "save/Identity_291"
  op: "Identity"
  input: "save/RestoreV2:291"
  attr {
    key: "T"
    value {
      type: DT_FLOAT
    }
  }
}
node {
  name: "save/AssignVariableOp_291"
  op: "AssignVariableOp"
  input: "efficientnet/efficientnet-b0/blocks_9/tpu_batch_normalization_1/beta"
  input: "save/Identity_291"
  attr {
    key: "dtype"
    value {
      type: DT_FLOAT
    }
  }
}
node {
  name: "save/Identity_292"
  op: "Identity"
  input: "save/RestoreV2:292"
  attr {
    key: "T"
    value {
      type: DT_FLOAT
    }
  }
}
node {
  name: "save/AssignVariableOp_292"
  op: "AssignVariableOp"
  input: "efficientnet/efficientnet-b0/blocks_9/tpu_batch_normalization_1/gamma"
  input: "save/Identity_292"
  attr {
    key: "dtype"
    value {
      type: DT_FLOAT
    }
  }
}
node {
  name: "save/Identity_293"
  op: "Identity"
  input: "save/RestoreV2:293"
  attr {
    key: "T"
    value {
      type: DT_FLOAT
    }
  }
}
node {
  name: "save/AssignVariableOp_293"
  op: "AssignVariableOp"
  input: "efficientnet/efficientnet-b0/blocks_9/tpu_batch_normalization_1/moving_mean"
  input: "save/Identity_293"
  attr {
    key: "dtype"
    value {
      type: DT_FLOAT
    }
  }
}
node {
  name: "save/Identity_294"
  op: "Identity"
  input: "save/RestoreV2:294"
  attr {
    key: "T"
    value {
      type: DT_FLOAT
    }
  }
}
node {
  name: "save/AssignVariableOp_294"
  op: "AssignVariableOp"
  input: "efficientnet/efficientnet-b0/blocks_9/tpu_batch_normalization_1/moving_variance"
  input: "save/Identity_294"
  attr {
    key: "dtype"
    value {
      type: DT_FLOAT
    }
  }
}
node {
  name: "save/Identity_295"
  op: "Identity"
  input: "save/RestoreV2:295"
  attr {
    key: "T"
    value {
      type: DT_FLOAT
    }
  }
}
node {
  name: "save/AssignVariableOp_295"
  op: "AssignVariableOp"
  input: "efficientnet/efficientnet-b0/blocks_9/tpu_batch_normalization_2/beta"
  input: "save/Identity_295"
  attr {
    key: "dtype"
    value {
      type: DT_FLOAT
    }
  }
}
node {
  name: "save/Identity_296"
  op: "Identity"
  input: "save/RestoreV2:296"
  attr {
    key: "T"
    value {
      type: DT_FLOAT
    }
  }
}
node {
  name: "save/AssignVariableOp_296"
  op: "AssignVariableOp"
  input: "efficientnet/efficientnet-b0/blocks_9/tpu_batch_normalization_2/gamma"
  input: "save/Identity_296"
  attr {
    key: "dtype"
    value {
      type: DT_FLOAT
    }
  }
}
node {
  name: "save/Identity_297"
  op: "Identity"
  input: "save/RestoreV2:297"
  attr {
    key: "T"
    value {
      type: DT_FLOAT
    }
  }
}
node {
  name: "save/AssignVariableOp_297"
  op: "AssignVariableOp"
  input: "efficientnet/efficientnet-b0/blocks_9/tpu_batch_normalization_2/moving_mean"
  input: "save/Identity_297"
  attr {
    key: "dtype"
    value {
      type: DT_FLOAT
    }
  }
}
node {
  name: "save/Identity_298"
  op: "Identity"
  input: "save/RestoreV2:298"
  attr {
    key: "T"
    value {
      type: DT_FLOAT
    }
  }
}
node {
  name: "save/AssignVariableOp_298"
  op: "AssignVariableOp"
  input: "efficientnet/efficientnet-b0/blocks_9/tpu_batch_normalization_2/moving_variance"
  input: "save/Identity_298"
  attr {
    key: "dtype"
    value {
      type: DT_FLOAT
    }
  }
}
node {
  name: "save/Identity_299"
  op: "Identity"
  input: "save/RestoreV2:299"
  attr {
    key: "T"
    value {
      type: DT_FLOAT
    }
  }
}
node {
  name: "save/AssignVariableOp_299"
  op: "AssignVariableOp"
  input: "efficientnet/efficientnet-b0/stem/conv2d/kernel"
  input: "save/Identity_299"
  attr {
    key: "dtype"
    value {
      type: DT_FLOAT
    }
  }
}
node {
  name: "save/Identity_300"
  op: "Identity"
  input: "save/RestoreV2:300"
  attr {
    key: "T"
    value {
      type: DT_FLOAT
    }
  }
}
node {
  name: "save/AssignVariableOp_300"
  op: "AssignVariableOp"
  input: "efficientnet/efficientnet-b0/stem/tpu_batch_normalization/beta"
  input: "save/Identity_300"
  attr {
    key: "dtype"
    value {
      type: DT_FLOAT
    }
  }
}
node {
  name: "save/Identity_301"
  op: "Identity"
  input: "save/RestoreV2:301"
  attr {
    key: "T"
    value {
      type: DT_FLOAT
    }
  }
}
node {
  name: "save/AssignVariableOp_301"
  op: "AssignVariableOp"
  input: "efficientnet/efficientnet-b0/stem/tpu_batch_normalization/gamma"
  input: "save/Identity_301"
  attr {
    key: "dtype"
    value {
      type: DT_FLOAT
    }
  }
}
node {
  name: "save/Identity_302"
  op: "Identity"
  input: "save/RestoreV2:302"
  attr {
    key: "T"
    value {
      type: DT_FLOAT
    }
  }
}
node {
  name: "save/AssignVariableOp_302"
  op: "AssignVariableOp"
  input: "efficientnet/efficientnet-b0/stem/tpu_batch_normalization/moving_mean"
  input: "save/Identity_302"
  attr {
    key: "dtype"
    value {
      type: DT_FLOAT
    }
  }
}
node {
  name: "save/Identity_303"
  op: "Identity"
  input: "save/RestoreV2:303"
  attr {
    key: "T"
    value {
      type: DT_FLOAT
    }
  }
}
node {
  name: "save/AssignVariableOp_303"
  op: "AssignVariableOp"
  input: "efficientnet/efficientnet-b0/stem/tpu_batch_normalization/moving_variance"
  input: "save/Identity_303"
  attr {
    key: "dtype"
    value {
      type: DT_FLOAT
    }
  }
}
node {
  name: "save/Identity_304"
  op: "Identity"
  input: "save/RestoreV2:304"
  attr {
    key: "T"
    value {
      type: DT_FLOAT
    }
  }
}
node {
  name: "save/AssignVariableOp_304"
  op: "AssignVariableOp"
  input: "pose/locref_pred/block4/biases"
  input: "save/Identity_304"
  attr {
    key: "dtype"
    value {
      type: DT_FLOAT
    }
  }
}
node {
  name: "save/Identity_305"
  op: "Identity"
  input: "save/RestoreV2:305"
  attr {
    key: "T"
    value {
      type: DT_FLOAT
    }
  }
}
node {
  name: "save/AssignVariableOp_305"
  op: "AssignVariableOp"
  input: "pose/locref_pred/block4/weights"
  input: "save/Identity_305"
  attr {
    key: "dtype"
    value {
      type: DT_FLOAT
    }
  }
}
node {
  name: "save/Identity_306"
  op: "Identity"
  input: "save/RestoreV2:306"
  attr {
    key: "T"
    value {
      type: DT_FLOAT
    }
  }
}
node {
  name: "save/AssignVariableOp_306"
  op: "AssignVariableOp"
  input: "pose/pairwise_pred/block4/biases"
  input: "save/Identity_306"
  attr {
    key: "dtype"
    value {
      type: DT_FLOAT
    }
  }
}
node {
  name: "save/Identity_307"
  op: "Identity"
  input: "save/RestoreV2:307"
  attr {
    key: "T"
    value {
      type: DT_FLOAT
    }
  }
}
node {
  name: "save/AssignVariableOp_307"
  op: "AssignVariableOp"
  input: "pose/pairwise_pred/block4/weights"
  input: "save/Identity_307"
  attr {
    key: "dtype"
    value {
      type: DT_FLOAT
    }
  }
}
node {
  name: "save/Identity_308"
  op: "Identity"
  input: "save/RestoreV2:308"
  attr {
    key: "T"
    value {
      type: DT_FLOAT
    }
  }
}
node {
  name: "save/AssignVariableOp_308"
  op: "AssignVariableOp"
  input: "pose/part_pred/block4/biases"
  input: "save/Identity_308"
  attr {
    key: "dtype"
    value {
      type: DT_FLOAT
    }
  }
}
node {
  name: "save/Identity_309"
  op: "Identity"
  input: "save/RestoreV2:309"
  attr {
    key: "T"
    value {
      type: DT_FLOAT
    }
  }
}
node {
  name: "save/AssignVariableOp_309"
  op: "AssignVariableOp"
  input: "pose/part_pred/block4/weights"
  input: "save/Identity_309"
  attr {
    key: "dtype"
    value {
      type: DT_FLOAT
    }
  }
}
node {
  name: "save/restore_all"
  op: "NoOp"
  input: "^save/AssignVariableOp"
  input: "^save/AssignVariableOp_1"
  input: "^save/AssignVariableOp_10"
  input: "^save/AssignVariableOp_100"
  input: "^save/AssignVariableOp_101"
  input: "^save/AssignVariableOp_102"
  input: "^save/AssignVariableOp_103"
  input: "^save/AssignVariableOp_104"
  input: "^save/AssignVariableOp_105"
  input: "^save/AssignVariableOp_106"
  input: "^save/AssignVariableOp_107"
  input: "^save/AssignVariableOp_108"
  input: "^save/AssignVariableOp_109"
  input: "^save/AssignVariableOp_11"
  input: "^save/AssignVariableOp_110"
  input: "^save/AssignVariableOp_111"
  input: "^save/AssignVariableOp_112"
  input: "^save/AssignVariableOp_113"
  input: "^save/AssignVariableOp_114"
  input: "^save/AssignVariableOp_115"
  input: "^save/AssignVariableOp_116"
  input: "^save/AssignVariableOp_117"
  input: "^save/AssignVariableOp_118"
  input: "^save/AssignVariableOp_119"
  input: "^save/AssignVariableOp_12"
  input: "^save/AssignVariableOp_120"
  input: "^save/AssignVariableOp_121"
  input: "^save/AssignVariableOp_122"
  input: "^save/AssignVariableOp_123"
  input: "^save/AssignVariableOp_124"
  input: "^save/AssignVariableOp_125"
  input: "^save/AssignVariableOp_126"
  input: "^save/AssignVariableOp_127"
  input: "^save/AssignVariableOp_128"
  input: "^save/AssignVariableOp_129"
  input: "^save/AssignVariableOp_13"
  input: "^save/AssignVariableOp_130"
  input: "^save/AssignVariableOp_131"
  input: "^save/AssignVariableOp_132"
  input: "^save/AssignVariableOp_133"
  input: "^save/AssignVariableOp_134"
  input: "^save/AssignVariableOp_135"
  input: "^save/AssignVariableOp_136"
  input: "^save/AssignVariableOp_137"
  input: "^save/AssignVariableOp_138"
  input: "^save/AssignVariableOp_139"
  input: "^save/AssignVariableOp_14"
  input: "^save/AssignVariableOp_140"
  input: "^save/AssignVariableOp_141"
  input: "^save/AssignVariableOp_142"
  input: "^save/AssignVariableOp_143"
  input: "^save/AssignVariableOp_144"
  input: "^save/AssignVariableOp_145"
  input: "^save/AssignVariableOp_146"
  input: "^save/AssignVariableOp_147"
  input: "^save/AssignVariableOp_148"
  input: "^save/AssignVariableOp_149"
  input: "^save/AssignVariableOp_15"
  input: "^save/AssignVariableOp_150"
  input: "^save/AssignVariableOp_151"
  input: "^save/AssignVariableOp_152"
  input: "^save/AssignVariableOp_153"
  input: "^save/AssignVariableOp_154"
  input: "^save/AssignVariableOp_155"
  input: "^save/AssignVariableOp_156"
  input: "^save/AssignVariableOp_157"
  input: "^save/AssignVariableOp_158"
  input: "^save/AssignVariableOp_159"
  input: "^save/AssignVariableOp_16"
  input: "^save/AssignVariableOp_160"
  input: "^save/AssignVariableOp_161"
  input: "^save/AssignVariableOp_162"
  input: "^save/AssignVariableOp_163"
  input: "^save/AssignVariableOp_164"
  input: "^save/AssignVariableOp_165"
  input: "^save/AssignVariableOp_166"
  input: "^save/AssignVariableOp_167"
  input: "^save/AssignVariableOp_168"
  input: "^save/AssignVariableOp_169"
  input: "^save/AssignVariableOp_17"
  input: "^save/AssignVariableOp_170"
  input: "^save/AssignVariableOp_171"
  input: "^save/AssignVariableOp_172"
  input: "^save/AssignVariableOp_173"
  input: "^save/AssignVariableOp_174"
  input: "^save/AssignVariableOp_175"
  input: "^save/AssignVariableOp_176"
  input: "^save/AssignVariableOp_177"
  input: "^save/AssignVariableOp_178"
  input: "^save/AssignVariableOp_179"
  input: "^save/AssignVariableOp_18"
  input: "^save/AssignVariableOp_180"
  input: "^save/AssignVariableOp_181"
  input: "^save/AssignVariableOp_182"
  input: "^save/AssignVariableOp_183"
  input: "^save/AssignVariableOp_184"
  input: "^save/AssignVariableOp_185"
  input: "^save/AssignVariableOp_186"
  input: "^save/AssignVariableOp_187"
  input: "^save/AssignVariableOp_188"
  input: "^save/AssignVariableOp_189"
  input: "^save/AssignVariableOp_19"
  input: "^save/AssignVariableOp_190"
  input: "^save/AssignVariableOp_191"
  input: "^save/AssignVariableOp_192"
  input: "^save/AssignVariableOp_193"
  input: "^save/AssignVariableOp_194"
  input: "^save/AssignVariableOp_195"
  input: "^save/AssignVariableOp_196"
  input: "^save/AssignVariableOp_197"
  input: "^save/AssignVariableOp_198"
  input: "^save/AssignVariableOp_199"
  input: "^save/AssignVariableOp_2"
  input: "^save/AssignVariableOp_20"
  input: "^save/AssignVariableOp_200"
  input: "^save/AssignVariableOp_201"
  input: "^save/AssignVariableOp_202"
  input: "^save/AssignVariableOp_203"
  input: "^save/AssignVariableOp_204"
  input: "^save/AssignVariableOp_205"
  input: "^save/AssignVariableOp_206"
  input: "^save/AssignVariableOp_207"
  input: "^save/AssignVariableOp_208"
  input: "^save/AssignVariableOp_209"
  input: "^save/AssignVariableOp_21"
  input: "^save/AssignVariableOp_210"
  input: "^save/AssignVariableOp_211"
  input: "^save/AssignVariableOp_212"
  input: "^save/AssignVariableOp_213"
  input: "^save/AssignVariableOp_214"
  input: "^save/AssignVariableOp_215"
  input: "^save/AssignVariableOp_216"
  input: "^save/AssignVariableOp_217"
  input: "^save/AssignVariableOp_218"
  input: "^save/AssignVariableOp_219"
  input: "^save/AssignVariableOp_22"
  input: "^save/AssignVariableOp_220"
  input: "^save/AssignVariableOp_221"
  input: "^save/AssignVariableOp_222"
  input: "^save/AssignVariableOp_223"
  input: "^save/AssignVariableOp_224"
  input: "^save/AssignVariableOp_225"
  input: "^save/AssignVariableOp_226"
  input: "^save/AssignVariableOp_227"
  input: "^save/AssignVariableOp_228"
  input: "^save/AssignVariableOp_229"
  input: "^save/AssignVariableOp_23"
  input: "^save/AssignVariableOp_230"
  input: "^save/AssignVariableOp_231"
  input: "^save/AssignVariableOp_232"
  input: "^save/AssignVariableOp_233"
  input: "^save/AssignVariableOp_234"
  input: "^save/AssignVariableOp_235"
  input: "^save/AssignVariableOp_236"
  input: "^save/AssignVariableOp_237"
  input: "^save/AssignVariableOp_238"
  input: "^save/AssignVariableOp_239"
  input: "^save/AssignVariableOp_24"
  input: "^save/AssignVariableOp_240"
  input: "^save/AssignVariableOp_241"
  input: "^save/AssignVariableOp_242"
  input: "^save/AssignVariableOp_243"
  input: "^save/AssignVariableOp_244"
  input: "^save/AssignVariableOp_245"
  input: "^save/AssignVariableOp_246"
  input: "^save/AssignVariableOp_247"
  input: "^save/AssignVariableOp_248"
  input: "^save/AssignVariableOp_249"
  input: "^save/AssignVariableOp_25"
  input: "^save/AssignVariableOp_250"
  input: "^save/AssignVariableOp_251"
  input: "^save/AssignVariableOp_252"
  input: "^save/AssignVariableOp_253"
  input: "^save/AssignVariableOp_254"
  input: "^save/AssignVariableOp_255"
  input: "^save/AssignVariableOp_256"
  input: "^save/AssignVariableOp_257"
  input: "^save/AssignVariableOp_258"
  input: "^save/AssignVariableOp_259"
  input: "^save/AssignVariableOp_26"
  input: "^save/AssignVariableOp_260"
  input: "^save/AssignVariableOp_261"
  input: "^save/AssignVariableOp_262"
  input: "^save/AssignVariableOp_263"
  input: "^save/AssignVariableOp_264"
  input: "^save/AssignVariableOp_265"
  input: "^save/AssignVariableOp_266"
  input: "^save/AssignVariableOp_267"
  input: "^save/AssignVariableOp_268"
  input: "^save/AssignVariableOp_269"
  input: "^save/AssignVariableOp_27"
  input: "^save/AssignVariableOp_270"
  input: "^save/AssignVariableOp_271"
  input: "^save/AssignVariableOp_272"
  input: "^save/AssignVariableOp_273"
  input: "^save/AssignVariableOp_274"
  input: "^save/AssignVariableOp_275"
  input: "^save/AssignVariableOp_276"
  input: "^save/AssignVariableOp_277"
  input: "^save/AssignVariableOp_278"
  input: "^save/AssignVariableOp_279"
  input: "^save/AssignVariableOp_28"
  input: "^save/AssignVariableOp_280"
  input: "^save/AssignVariableOp_281"
  input: "^save/AssignVariableOp_282"
  input: "^save/AssignVariableOp_283"
  input: "^save/AssignVariableOp_284"
  input: "^save/AssignVariableOp_285"
  input: "^save/AssignVariableOp_286"
  input: "^save/AssignVariableOp_287"
  input: "^save/AssignVariableOp_288"
  input: "^save/AssignVariableOp_289"
  input: "^save/AssignVariableOp_29"
  input: "^save/AssignVariableOp_290"
  input: "^save/AssignVariableOp_291"
  input: "^save/AssignVariableOp_292"
  input: "^save/AssignVariableOp_293"
  input: "^save/AssignVariableOp_294"
  input: "^save/AssignVariableOp_295"
  input: "^save/AssignVariableOp_296"
  input: "^save/AssignVariableOp_297"
  input: "^save/AssignVariableOp_298"
  input: "^save/AssignVariableOp_299"
  input: "^save/AssignVariableOp_3"
  input: "^save/AssignVariableOp_30"
  input: "^save/AssignVariableOp_300"
  input: "^save/AssignVariableOp_301"
  input: "^save/AssignVariableOp_302"
  input: "^save/AssignVariableOp_303"
  input: "^save/AssignVariableOp_304"
  input: "^save/AssignVariableOp_305"
  input: "^save/AssignVariableOp_306"
  input: "^save/AssignVariableOp_307"
  input: "^save/AssignVariableOp_308"
  input: "^save/AssignVariableOp_309"
  input: "^save/AssignVariableOp_31"
  input: "^save/AssignVariableOp_32"
  input: "^save/AssignVariableOp_33"
  input: "^save/AssignVariableOp_34"
  input: "^save/AssignVariableOp_35"
  input: "^save/AssignVariableOp_36"
  input: "^save/AssignVariableOp_37"
  input: "^save/AssignVariableOp_38"
  input: "^save/AssignVariableOp_39"
  input: "^save/AssignVariableOp_4"
  input: "^save/AssignVariableOp_40"
  input: "^save/AssignVariableOp_41"
  input: "^save/AssignVariableOp_42"
  input: "^save/AssignVariableOp_43"
  input: "^save/AssignVariableOp_44"
  input: "^save/AssignVariableOp_45"
  input: "^save/AssignVariableOp_46"
  input: "^save/AssignVariableOp_47"
  input: "^save/AssignVariableOp_48"
  input: "^save/AssignVariableOp_49"
  input: "^save/AssignVariableOp_5"
  input: "^save/AssignVariableOp_50"
  input: "^save/AssignVariableOp_51"
  input: "^save/AssignVariableOp_52"
  input: "^save/AssignVariableOp_53"
  input: "^save/AssignVariableOp_54"
  input: "^save/AssignVariableOp_55"
  input: "^save/AssignVariableOp_56"
  input: "^save/AssignVariableOp_57"
  input: "^save/AssignVariableOp_58"
  input: "^save/AssignVariableOp_59"
  input: "^save/AssignVariableOp_6"
  input: "^save/AssignVariableOp_60"
  input: "^save/AssignVariableOp_61"
  input: "^save/AssignVariableOp_62"
  input: "^save/AssignVariableOp_63"
  input: "^save/AssignVariableOp_64"
  input: "^save/AssignVariableOp_65"
  input: "^save/AssignVariableOp_66"
  input: "^save/AssignVariableOp_67"
  input: "^save/AssignVariableOp_68"
  input: "^save/AssignVariableOp_69"
  input: "^save/AssignVariableOp_7"
  input: "^save/AssignVariableOp_70"
  input: "^save/AssignVariableOp_71"
  input: "^save/AssignVariableOp_72"
  input: "^save/AssignVariableOp_73"
  input: "^save/AssignVariableOp_74"
  input: "^save/AssignVariableOp_75"
  input: "^save/AssignVariableOp_76"
  input: "^save/AssignVariableOp_77"
  input: "^save/AssignVariableOp_78"
  input: "^save/AssignVariableOp_79"
  input: "^save/AssignVariableOp_8"
  input: "^save/AssignVariableOp_80"
  input: "^save/AssignVariableOp_81"
  input: "^save/AssignVariableOp_82"
  input: "^save/AssignVariableOp_83"
  input: "^save/AssignVariableOp_84"
  input: "^save/AssignVariableOp_85"
  input: "^save/AssignVariableOp_86"
  input: "^save/AssignVariableOp_87"
  input: "^save/AssignVariableOp_88"
  input: "^save/AssignVariableOp_89"
  input: "^save/AssignVariableOp_9"
  input: "^save/AssignVariableOp_90"
  input: "^save/AssignVariableOp_91"
  input: "^save/AssignVariableOp_92"
  input: "^save/AssignVariableOp_93"
  input: "^save/AssignVariableOp_94"
  input: "^save/AssignVariableOp_95"
  input: "^save/AssignVariableOp_96"
  input: "^save/AssignVariableOp_97"
  input: "^save/AssignVariableOp_98"
  input: "^save/AssignVariableOp_99"
}
node {
  name: "init"
  op: "NoOp"
  input: "^efficientnet/efficientnet-b0/blocks_0/conv2d/kernel/Assign"
  input: "^efficientnet/efficientnet-b0/blocks_0/depthwise_conv2d/depthwise_kernel/Assign"
  input: "^efficientnet/efficientnet-b0/blocks_0/se/conv2d/bias/Assign"
  input: "^efficientnet/efficientnet-b0/blocks_0/se/conv2d/kernel/Assign"
  input: "^efficientnet/efficientnet-b0/blocks_0/se/conv2d_1/bias/Assign"
  input: "^efficientnet/efficientnet-b0/blocks_0/se/conv2d_1/kernel/Assign"
  input: "^efficientnet/efficientnet-b0/blocks_0/tpu_batch_normalization/beta/Assign"
  input: "^efficientnet/efficientnet-b0/blocks_0/tpu_batch_normalization/gamma/Assign"
  input: "^efficientnet/efficientnet-b0/blocks_0/tpu_batch_normalization/moving_mean/Assign"
  input: "^efficientnet/efficientnet-b0/blocks_0/tpu_batch_normalization/moving_variance/Assign"
  input: "^efficientnet/efficientnet-b0/blocks_0/tpu_batch_normalization_1/beta/Assign"
  input: "^efficientnet/efficientnet-b0/blocks_0/tpu_batch_normalization_1/gamma/Assign"
  input: "^efficientnet/efficientnet-b0/blocks_0/tpu_batch_normalization_1/moving_mean/Assign"
  input: "^efficientnet/efficientnet-b0/blocks_0/tpu_batch_normalization_1/moving_variance/Assign"
  input: "^efficientnet/efficientnet-b0/blocks_1/conv2d/kernel/Assign"
  input: "^efficientnet/efficientnet-b0/blocks_1/conv2d_1/kernel/Assign"
  input: "^efficientnet/efficientnet-b0/blocks_1/depthwise_conv2d/depthwise_kernel/Assign"
  input: "^efficientnet/efficientnet-b0/blocks_1/se/conv2d/bias/Assign"
  input: "^efficientnet/efficientnet-b0/blocks_1/se/conv2d/kernel/Assign"
  input: "^efficientnet/efficientnet-b0/blocks_1/se/conv2d_1/bias/Assign"
  input: "^efficientnet/efficientnet-b0/blocks_1/se/conv2d_1/kernel/Assign"
  input: "^efficientnet/efficientnet-b0/blocks_1/tpu_batch_normalization/beta/Assign"
  input: "^efficientnet/efficientnet-b0/blocks_1/tpu_batch_normalization/gamma/Assign"
  input: "^efficientnet/efficientnet-b0/blocks_1/tpu_batch_normalization/moving_mean/Assign"
  input: "^efficientnet/efficientnet-b0/blocks_1/tpu_batch_normalization/moving_variance/Assign"
  input: "^efficientnet/efficientnet-b0/blocks_1/tpu_batch_normalization_1/beta/Assign"
  input: "^efficientnet/efficientnet-b0/blocks_1/tpu_batch_normalization_1/gamma/Assign"
  input: "^efficientnet/efficientnet-b0/blocks_1/tpu_batch_normalization_1/moving_mean/Assign"
  input: "^efficientnet/efficientnet-b0/blocks_1/tpu_batch_normalization_1/moving_variance/Assign"
  input: "^efficientnet/efficientnet-b0/blocks_1/tpu_batch_normalization_2/beta/Assign"
  input: "^efficientnet/efficientnet-b0/blocks_1/tpu_batch_normalization_2/gamma/Assign"
  input: "^efficientnet/efficientnet-b0/blocks_1/tpu_batch_normalization_2/moving_mean/Assign"
  input: "^efficientnet/efficientnet-b0/blocks_1/tpu_batch_normalization_2/moving_variance/Assign"
  input: "^efficientnet/efficientnet-b0/blocks_10/conv2d/kernel/Assign"
  input: "^efficientnet/efficientnet-b0/blocks_10/conv2d_1/kernel/Assign"
  input: "^efficientnet/efficientnet-b0/blocks_10/depthwise_conv2d/depthwise_kernel/Assign"
  input: "^efficientnet/efficientnet-b0/blocks_10/se/conv2d/bias/Assign"
  input: "^efficientnet/efficientnet-b0/blocks_10/se/conv2d/kernel/Assign"
  input: "^efficientnet/efficientnet-b0/blocks_10/se/conv2d_1/bias/Assign"
  input: "^efficientnet/efficientnet-b0/blocks_10/se/conv2d_1/kernel/Assign"
  input: "^efficientnet/efficientnet-b0/blocks_10/tpu_batch_normalization/beta/Assign"
  input: "^efficientnet/efficientnet-b0/blocks_10/tpu_batch_normalization/gamma/Assign"
  input: "^efficientnet/efficientnet-b0/blocks_10/tpu_batch_normalization/moving_mean/Assign"
  input: "^efficientnet/efficientnet-b0/blocks_10/tpu_batch_normalization/moving_variance/Assign"
  input: "^efficientnet/efficientnet-b0/blocks_10/tpu_batch_normalization_1/beta/Assign"
  input: "^efficientnet/efficientnet-b0/blocks_10/tpu_batch_normalization_1/gamma/Assign"
  input: "^efficientnet/efficientnet-b0/blocks_10/tpu_batch_normalization_1/moving_mean/Assign"
  input: "^efficientnet/efficientnet-b0/blocks_10/tpu_batch_normalization_1/moving_variance/Assign"
  input: "^efficientnet/efficientnet-b0/blocks_10/tpu_batch_normalization_2/beta/Assign"
  input: "^efficientnet/efficientnet-b0/blocks_10/tpu_batch_normalization_2/gamma/Assign"
  input: "^efficientnet/efficientnet-b0/blocks_10/tpu_batch_normalization_2/moving_mean/Assign"
  input: "^efficientnet/efficientnet-b0/blocks_10/tpu_batch_normalization_2/moving_variance/Assign"
  input: "^efficientnet/efficientnet-b0/blocks_11/conv2d/kernel/Assign"
  input: "^efficientnet/efficientnet-b0/blocks_11/conv2d_1/kernel/Assign"
  input: "^efficientnet/efficientnet-b0/blocks_11/depthwise_conv2d/depthwise_kernel/Assign"
  input: "^efficientnet/efficientnet-b0/blocks_11/se/conv2d/bias/Assign"
  input: "^efficientnet/efficientnet-b0/blocks_11/se/conv2d/kernel/Assign"
  input: "^efficientnet/efficientnet-b0/blocks_11/se/conv2d_1/bias/Assign"
  input: "^efficientnet/efficientnet-b0/blocks_11/se/conv2d_1/kernel/Assign"
  input: "^efficientnet/efficientnet-b0/blocks_11/tpu_batch_normalization/beta/Assign"
  input: "^efficientnet/efficientnet-b0/blocks_11/tpu_batch_normalization/gamma/Assign"
  input: "^efficientnet/efficientnet-b0/blocks_11/tpu_batch_normalization/moving_mean/Assign"
  input: "^efficientnet/efficientnet-b0/blocks_11/tpu_batch_normalization/moving_variance/Assign"
  input: "^efficientnet/efficientnet-b0/blocks_11/tpu_batch_normalization_1/beta/Assign"
  input: "^efficientnet/efficientnet-b0/blocks_11/tpu_batch_normalization_1/gamma/Assign"
  input: "^efficientnet/efficientnet-b0/blocks_11/tpu_batch_normalization_1/moving_mean/Assign"
  input: "^efficientnet/efficientnet-b0/blocks_11/tpu_batch_normalization_1/moving_variance/Assign"
  input: "^efficientnet/efficientnet-b0/blocks_11/tpu_batch_normalization_2/beta/Assign"
  input: "^efficientnet/efficientnet-b0/blocks_11/tpu_batch_normalization_2/gamma/Assign"
  input: "^efficientnet/efficientnet-b0/blocks_11/tpu_batch_normalization_2/moving_mean/Assign"
  input: "^efficientnet/efficientnet-b0/blocks_11/tpu_batch_normalization_2/moving_variance/Assign"
  input: "^efficientnet/efficientnet-b0/blocks_12/conv2d/kernel/Assign"
  input: "^efficientnet/efficientnet-b0/blocks_12/conv2d_1/kernel/Assign"
  input: "^efficientnet/efficientnet-b0/blocks_12/depthwise_conv2d/depthwise_kernel/Assign"
  input: "^efficientnet/efficientnet-b0/blocks_12/se/conv2d/bias/Assign"
  input: "^efficientnet/efficientnet-b0/blocks_12/se/conv2d/kernel/Assign"
  input: "^efficientnet/efficientnet-b0/blocks_12/se/conv2d_1/bias/Assign"
  input: "^efficientnet/efficientnet-b0/blocks_12/se/conv2d_1/kernel/Assign"
  input: "^efficientnet/efficientnet-b0/blocks_12/tpu_batch_normalization/beta/Assign"
  input: "^efficientnet/efficientnet-b0/blocks_12/tpu_batch_normalization/gamma/Assign"
  input: "^efficientnet/efficientnet-b0/blocks_12/tpu_batch_normalization/moving_mean/Assign"
  input: "^efficientnet/efficientnet-b0/blocks_12/tpu_batch_normalization/moving_variance/Assign"
  input: "^efficientnet/efficientnet-b0/blocks_12/tpu_batch_normalization_1/beta/Assign"
  input: "^efficientnet/efficientnet-b0/blocks_12/tpu_batch_normalization_1/gamma/Assign"
  input: "^efficientnet/efficientnet-b0/blocks_12/tpu_batch_normalization_1/moving_mean/Assign"
  input: "^efficientnet/efficientnet-b0/blocks_12/tpu_batch_normalization_1/moving_variance/Assign"
  input: "^efficientnet/efficientnet-b0/blocks_12/tpu_batch_normalization_2/beta/Assign"
  input: "^efficientnet/efficientnet-b0/blocks_12/tpu_batch_normalization_2/gamma/Assign"
  input: "^efficientnet/efficientnet-b0/blocks_12/tpu_batch_normalization_2/moving_mean/Assign"
  input: "^efficientnet/efficientnet-b0/blocks_12/tpu_batch_normalization_2/moving_variance/Assign"
  input: "^efficientnet/efficientnet-b0/blocks_13/conv2d/kernel/Assign"
  input: "^efficientnet/efficientnet-b0/blocks_13/conv2d_1/kernel/Assign"
  input: "^efficientnet/efficientnet-b0/blocks_13/depthwise_conv2d/depthwise_kernel/Assign"
  input: "^efficientnet/efficientnet-b0/blocks_13/se/conv2d/bias/Assign"
  input: "^efficientnet/efficientnet-b0/blocks_13/se/conv2d/kernel/Assign"
  input: "^efficientnet/efficientnet-b0/blocks_13/se/conv2d_1/bias/Assign"
  input: "^efficientnet/efficientnet-b0/blocks_13/se/conv2d_1/kernel/Assign"
  input: "^efficientnet/efficientnet-b0/blocks_13/tpu_batch_normalization/beta/Assign"
  input: "^efficientnet/efficientnet-b0/blocks_13/tpu_batch_normalization/gamma/Assign"
  input: "^efficientnet/efficientnet-b0/blocks_13/tpu_batch_normalization/moving_mean/Assign"
  input: "^efficientnet/efficientnet-b0/blocks_13/tpu_batch_normalization/moving_variance/Assign"
  input: "^efficientnet/efficientnet-b0/blocks_13/tpu_batch_normalization_1/beta/Assign"
  input: "^efficientnet/efficientnet-b0/blocks_13/tpu_batch_normalization_1/gamma/Assign"
  input: "^efficientnet/efficientnet-b0/blocks_13/tpu_batch_normalization_1/moving_mean/Assign"
  input: "^efficientnet/efficientnet-b0/blocks_13/tpu_batch_normalization_1/moving_variance/Assign"
  input: "^efficientnet/efficientnet-b0/blocks_13/tpu_batch_normalization_2/beta/Assign"
  input: "^efficientnet/efficientnet-b0/blocks_13/tpu_batch_normalization_2/gamma/Assign"
  input: "^efficientnet/efficientnet-b0/blocks_13/tpu_batch_normalization_2/moving_mean/Assign"
  input: "^efficientnet/efficientnet-b0/blocks_13/tpu_batch_normalization_2/moving_variance/Assign"
  input: "^efficientnet/efficientnet-b0/blocks_14/conv2d/kernel/Assign"
  input: "^efficientnet/efficientnet-b0/blocks_14/conv2d_1/kernel/Assign"
  input: "^efficientnet/efficientnet-b0/blocks_14/depthwise_conv2d/depthwise_kernel/Assign"
  input: "^efficientnet/efficientnet-b0/blocks_14/se/conv2d/bias/Assign"
  input: "^efficientnet/efficientnet-b0/blocks_14/se/conv2d/kernel/Assign"
  input: "^efficientnet/efficientnet-b0/blocks_14/se/conv2d_1/bias/Assign"
  input: "^efficientnet/efficientnet-b0/blocks_14/se/conv2d_1/kernel/Assign"
  input: "^efficientnet/efficientnet-b0/blocks_14/tpu_batch_normalization/beta/Assign"
  input: "^efficientnet/efficientnet-b0/blocks_14/tpu_batch_normalization/gamma/Assign"
  input: "^efficientnet/efficientnet-b0/blocks_14/tpu_batch_normalization/moving_mean/Assign"
  input: "^efficientnet/efficientnet-b0/blocks_14/tpu_batch_normalization/moving_variance/Assign"
  input: "^efficientnet/efficientnet-b0/blocks_14/tpu_batch_normalization_1/beta/Assign"
  input: "^efficientnet/efficientnet-b0/blocks_14/tpu_batch_normalization_1/gamma/Assign"
  input: "^efficientnet/efficientnet-b0/blocks_14/tpu_batch_normalization_1/moving_mean/Assign"
  input: "^efficientnet/efficientnet-b0/blocks_14/tpu_batch_normalization_1/moving_variance/Assign"
  input: "^efficientnet/efficientnet-b0/blocks_14/tpu_batch_normalization_2/beta/Assign"
  input: "^efficientnet/efficientnet-b0/blocks_14/tpu_batch_normalization_2/gamma/Assign"
  input: "^efficientnet/efficientnet-b0/blocks_14/tpu_batch_normalization_2/moving_mean/Assign"
  input: "^efficientnet/efficientnet-b0/blocks_14/tpu_batch_normalization_2/moving_variance/Assign"
  input: "^efficientnet/efficientnet-b0/blocks_15/conv2d/kernel/Assign"
  input: "^efficientnet/efficientnet-b0/blocks_15/conv2d_1/kernel/Assign"
  input: "^efficientnet/efficientnet-b0/blocks_15/depthwise_conv2d/depthwise_kernel/Assign"
  input: "^efficientnet/efficientnet-b0/blocks_15/se/conv2d/bias/Assign"
  input: "^efficientnet/efficientnet-b0/blocks_15/se/conv2d/kernel/Assign"
  input: "^efficientnet/efficientnet-b0/blocks_15/se/conv2d_1/bias/Assign"
  input: "^efficientnet/efficientnet-b0/blocks_15/se/conv2d_1/kernel/Assign"
  input: "^efficientnet/efficientnet-b0/blocks_15/tpu_batch_normalization/beta/Assign"
  input: "^efficientnet/efficientnet-b0/blocks_15/tpu_batch_normalization/gamma/Assign"
  input: "^efficientnet/efficientnet-b0/blocks_15/tpu_batch_normalization/moving_mean/Assign"
  input: "^efficientnet/efficientnet-b0/blocks_15/tpu_batch_normalization/moving_variance/Assign"
  input: "^efficientnet/efficientnet-b0/blocks_15/tpu_batch_normalization_1/beta/Assign"
  input: "^efficientnet/efficientnet-b0/blocks_15/tpu_batch_normalization_1/gamma/Assign"
  input: "^efficientnet/efficientnet-b0/blocks_15/tpu_batch_normalization_1/moving_mean/Assign"
  input: "^efficientnet/efficientnet-b0/blocks_15/tpu_batch_normalization_1/moving_variance/Assign"
  input: "^efficientnet/efficientnet-b0/blocks_15/tpu_batch_normalization_2/beta/Assign"
  input: "^efficientnet/efficientnet-b0/blocks_15/tpu_batch_normalization_2/gamma/Assign"
  input: "^efficientnet/efficientnet-b0/blocks_15/tpu_batch_normalization_2/moving_mean/Assign"
  input: "^efficientnet/efficientnet-b0/blocks_15/tpu_batch_normalization_2/moving_variance/Assign"
  input: "^efficientnet/efficientnet-b0/blocks_2/conv2d/kernel/Assign"
  input: "^efficientnet/efficientnet-b0/blocks_2/conv2d_1/kernel/Assign"
  input: "^efficientnet/efficientnet-b0/blocks_2/depthwise_conv2d/depthwise_kernel/Assign"
  input: "^efficientnet/efficientnet-b0/blocks_2/se/conv2d/bias/Assign"
  input: "^efficientnet/efficientnet-b0/blocks_2/se/conv2d/kernel/Assign"
  input: "^efficientnet/efficientnet-b0/blocks_2/se/conv2d_1/bias/Assign"
  input: "^efficientnet/efficientnet-b0/blocks_2/se/conv2d_1/kernel/Assign"
  input: "^efficientnet/efficientnet-b0/blocks_2/tpu_batch_normalization/beta/Assign"
  input: "^efficientnet/efficientnet-b0/blocks_2/tpu_batch_normalization/gamma/Assign"
  input: "^efficientnet/efficientnet-b0/blocks_2/tpu_batch_normalization/moving_mean/Assign"
  input: "^efficientnet/efficientnet-b0/blocks_2/tpu_batch_normalization/moving_variance/Assign"
  input: "^efficientnet/efficientnet-b0/blocks_2/tpu_batch_normalization_1/beta/Assign"
  input: "^efficientnet/efficientnet-b0/blocks_2/tpu_batch_normalization_1/gamma/Assign"
  input: "^efficientnet/efficientnet-b0/blocks_2/tpu_batch_normalization_1/moving_mean/Assign"
  input: "^efficientnet/efficientnet-b0/blocks_2/tpu_batch_normalization_1/moving_variance/Assign"
  input: "^efficientnet/efficientnet-b0/blocks_2/tpu_batch_normalization_2/beta/Assign"
  input: "^efficientnet/efficientnet-b0/blocks_2/tpu_batch_normalization_2/gamma/Assign"
  input: "^efficientnet/efficientnet-b0/blocks_2/tpu_batch_normalization_2/moving_mean/Assign"
  input: "^efficientnet/efficientnet-b0/blocks_2/tpu_batch_normalization_2/moving_variance/Assign"
  input: "^efficientnet/efficientnet-b0/blocks_3/conv2d/kernel/Assign"
  input: "^efficientnet/efficientnet-b0/blocks_3/conv2d_1/kernel/Assign"
  input: "^efficientnet/efficientnet-b0/blocks_3/depthwise_conv2d/depthwise_kernel/Assign"
  input: "^efficientnet/efficientnet-b0/blocks_3/se/conv2d/bias/Assign"
  input: "^efficientnet/efficientnet-b0/blocks_3/se/conv2d/kernel/Assign"
  input: "^efficientnet/efficientnet-b0/blocks_3/se/conv2d_1/bias/Assign"
  input: "^efficientnet/efficientnet-b0/blocks_3/se/conv2d_1/kernel/Assign"
  input: "^efficientnet/efficientnet-b0/blocks_3/tpu_batch_normalization/beta/Assign"
  input: "^efficientnet/efficientnet-b0/blocks_3/tpu_batch_normalization/gamma/Assign"
  input: "^efficientnet/efficientnet-b0/blocks_3/tpu_batch_normalization/moving_mean/Assign"
  input: "^efficientnet/efficientnet-b0/blocks_3/tpu_batch_normalization/moving_variance/Assign"
  input: "^efficientnet/efficientnet-b0/blocks_3/tpu_batch_normalization_1/beta/Assign"
  input: "^efficientnet/efficientnet-b0/blocks_3/tpu_batch_normalization_1/gamma/Assign"
  input: "^efficientnet/efficientnet-b0/blocks_3/tpu_batch_normalization_1/moving_mean/Assign"
  input: "^efficientnet/efficientnet-b0/blocks_3/tpu_batch_normalization_1/moving_variance/Assign"
  input: "^efficientnet/efficientnet-b0/blocks_3/tpu_batch_normalization_2/beta/Assign"
  input: "^efficientnet/efficientnet-b0/blocks_3/tpu_batch_normalization_2/gamma/Assign"
  input: "^efficientnet/efficientnet-b0/blocks_3/tpu_batch_normalization_2/moving_mean/Assign"
  input: "^efficientnet/efficientnet-b0/blocks_3/tpu_batch_normalization_2/moving_variance/Assign"
  input: "^efficientnet/efficientnet-b0/blocks_4/conv2d/kernel/Assign"
  input: "^efficientnet/efficientnet-b0/blocks_4/conv2d_1/kernel/Assign"
  input: "^efficientnet/efficientnet-b0/blocks_4/depthwise_conv2d/depthwise_kernel/Assign"
  input: "^efficientnet/efficientnet-b0/blocks_4/se/conv2d/bias/Assign"
  input: "^efficientnet/efficientnet-b0/blocks_4/se/conv2d/kernel/Assign"
  input: "^efficientnet/efficientnet-b0/blocks_4/se/conv2d_1/bias/Assign"
  input: "^efficientnet/efficientnet-b0/blocks_4/se/conv2d_1/kernel/Assign"
  input: "^efficientnet/efficientnet-b0/blocks_4/tpu_batch_normalization/beta/Assign"
  input: "^efficientnet/efficientnet-b0/blocks_4/tpu_batch_normalization/gamma/Assign"
  input: "^efficientnet/efficientnet-b0/blocks_4/tpu_batch_normalization/moving_mean/Assign"
  input: "^efficientnet/efficientnet-b0/blocks_4/tpu_batch_normalization/moving_variance/Assign"
  input: "^efficientnet/efficientnet-b0/blocks_4/tpu_batch_normalization_1/beta/Assign"
  input: "^efficientnet/efficientnet-b0/blocks_4/tpu_batch_normalization_1/gamma/Assign"
  input: "^efficientnet/efficientnet-b0/blocks_4/tpu_batch_normalization_1/moving_mean/Assign"
  input: "^efficientnet/efficientnet-b0/blocks_4/tpu_batch_normalization_1/moving_variance/Assign"
  input: "^efficientnet/efficientnet-b0/blocks_4/tpu_batch_normalization_2/beta/Assign"
  input: "^efficientnet/efficientnet-b0/blocks_4/tpu_batch_normalization_2/gamma/Assign"
  input: "^efficientnet/efficientnet-b0/blocks_4/tpu_batch_normalization_2/moving_mean/Assign"
  input: "^efficientnet/efficientnet-b0/blocks_4/tpu_batch_normalization_2/moving_variance/Assign"
  input: "^efficientnet/efficientnet-b0/blocks_5/conv2d/kernel/Assign"
  input: "^efficientnet/efficientnet-b0/blocks_5/conv2d_1/kernel/Assign"
  input: "^efficientnet/efficientnet-b0/blocks_5/depthwise_conv2d/depthwise_kernel/Assign"
  input: "^efficientnet/efficientnet-b0/blocks_5/se/conv2d/bias/Assign"
  input: "^efficientnet/efficientnet-b0/blocks_5/se/conv2d/kernel/Assign"
  input: "^efficientnet/efficientnet-b0/blocks_5/se/conv2d_1/bias/Assign"
  input: "^efficientnet/efficientnet-b0/blocks_5/se/conv2d_1/kernel/Assign"
  input: "^efficientnet/efficientnet-b0/blocks_5/tpu_batch_normalization/beta/Assign"
  input: "^efficientnet/efficientnet-b0/blocks_5/tpu_batch_normalization/gamma/Assign"
  input: "^efficientnet/efficientnet-b0/blocks_5/tpu_batch_normalization/moving_mean/Assign"
  input: "^efficientnet/efficientnet-b0/blocks_5/tpu_batch_normalization/moving_variance/Assign"
  input: "^efficientnet/efficientnet-b0/blocks_5/tpu_batch_normalization_1/beta/Assign"
  input: "^efficientnet/efficientnet-b0/blocks_5/tpu_batch_normalization_1/gamma/Assign"
  input: "^efficientnet/efficientnet-b0/blocks_5/tpu_batch_normalization_1/moving_mean/Assign"
  input: "^efficientnet/efficientnet-b0/blocks_5/tpu_batch_normalization_1/moving_variance/Assign"
  input: "^efficientnet/efficientnet-b0/blocks_5/tpu_batch_normalization_2/beta/Assign"
  input: "^efficientnet/efficientnet-b0/blocks_5/tpu_batch_normalization_2/gamma/Assign"
  input: "^efficientnet/efficientnet-b0/blocks_5/tpu_batch_normalization_2/moving_mean/Assign"
  input: "^efficientnet/efficientnet-b0/blocks_5/tpu_batch_normalization_2/moving_variance/Assign"
  input: "^efficientnet/efficientnet-b0/blocks_6/conv2d/kernel/Assign"
  input: "^efficientnet/efficientnet-b0/blocks_6/conv2d_1/kernel/Assign"
  input: "^efficientnet/efficientnet-b0/blocks_6/depthwise_conv2d/depthwise_kernel/Assign"
  input: "^efficientnet/efficientnet-b0/blocks_6/se/conv2d/bias/Assign"
  input: "^efficientnet/efficientnet-b0/blocks_6/se/conv2d/kernel/Assign"
  input: "^efficientnet/efficientnet-b0/blocks_6/se/conv2d_1/bias/Assign"
  input: "^efficientnet/efficientnet-b0/blocks_6/se/conv2d_1/kernel/Assign"
  input: "^efficientnet/efficientnet-b0/blocks_6/tpu_batch_normalization/beta/Assign"
  input: "^efficientnet/efficientnet-b0/blocks_6/tpu_batch_normalization/gamma/Assign"
  input: "^efficientnet/efficientnet-b0/blocks_6/tpu_batch_normalization/moving_mean/Assign"
  input: "^efficientnet/efficientnet-b0/blocks_6/tpu_batch_normalization/moving_variance/Assign"
  input: "^efficientnet/efficientnet-b0/blocks_6/tpu_batch_normalization_1/beta/Assign"
  input: "^efficientnet/efficientnet-b0/blocks_6/tpu_batch_normalization_1/gamma/Assign"
  input: "^efficientnet/efficientnet-b0/blocks_6/tpu_batch_normalization_1/moving_mean/Assign"
  input: "^efficientnet/efficientnet-b0/blocks_6/tpu_batch_normalization_1/moving_variance/Assign"
  input: "^efficientnet/efficientnet-b0/blocks_6/tpu_batch_normalization_2/beta/Assign"
  input: "^efficientnet/efficientnet-b0/blocks_6/tpu_batch_normalization_2/gamma/Assign"
  input: "^efficientnet/efficientnet-b0/blocks_6/tpu_batch_normalization_2/moving_mean/Assign"
  input: "^efficientnet/efficientnet-b0/blocks_6/tpu_batch_normalization_2/moving_variance/Assign"
  input: "^efficientnet/efficientnet-b0/blocks_7/conv2d/kernel/Assign"
  input: "^efficientnet/efficientnet-b0/blocks_7/conv2d_1/kernel/Assign"
  input: "^efficientnet/efficientnet-b0/blocks_7/depthwise_conv2d/depthwise_kernel/Assign"
  input: "^efficientnet/efficientnet-b0/blocks_7/se/conv2d/bias/Assign"
  input: "^efficientnet/efficientnet-b0/blocks_7/se/conv2d/kernel/Assign"
  input: "^efficientnet/efficientnet-b0/blocks_7/se/conv2d_1/bias/Assign"
  input: "^efficientnet/efficientnet-b0/blocks_7/se/conv2d_1/kernel/Assign"
  input: "^efficientnet/efficientnet-b0/blocks_7/tpu_batch_normalization/beta/Assign"
  input: "^efficientnet/efficientnet-b0/blocks_7/tpu_batch_normalization/gamma/Assign"
  input: "^efficientnet/efficientnet-b0/blocks_7/tpu_batch_normalization/moving_mean/Assign"
  input: "^efficientnet/efficientnet-b0/blocks_7/tpu_batch_normalization/moving_variance/Assign"
  input: "^efficientnet/efficientnet-b0/blocks_7/tpu_batch_normalization_1/beta/Assign"
  input: "^efficientnet/efficientnet-b0/blocks_7/tpu_batch_normalization_1/gamma/Assign"
  input: "^efficientnet/efficientnet-b0/blocks_7/tpu_batch_normalization_1/moving_mean/Assign"
  input: "^efficientnet/efficientnet-b0/blocks_7/tpu_batch_normalization_1/moving_variance/Assign"
  input: "^efficientnet/efficientnet-b0/blocks_7/tpu_batch_normalization_2/beta/Assign"
  input: "^efficientnet/efficientnet-b0/blocks_7/tpu_batch_normalization_2/gamma/Assign"
  input: "^efficientnet/efficientnet-b0/blocks_7/tpu_batch_normalization_2/moving_mean/Assign"
  input: "^efficientnet/efficientnet-b0/blocks_7/tpu_batch_normalization_2/moving_variance/Assign"
  input: "^efficientnet/efficientnet-b0/blocks_8/conv2d/kernel/Assign"
  input: "^efficientnet/efficientnet-b0/blocks_8/conv2d_1/kernel/Assign"
  input: "^efficientnet/efficientnet-b0/blocks_8/depthwise_conv2d/depthwise_kernel/Assign"
  input: "^efficientnet/efficientnet-b0/blocks_8/se/conv2d/bias/Assign"
  input: "^efficientnet/efficientnet-b0/blocks_8/se/conv2d/kernel/Assign"
  input: "^efficientnet/efficientnet-b0/blocks_8/se/conv2d_1/bias/Assign"
  input: "^efficientnet/efficientnet-b0/blocks_8/se/conv2d_1/kernel/Assign"
  input: "^efficientnet/efficientnet-b0/blocks_8/tpu_batch_normalization/beta/Assign"
  input: "^efficientnet/efficientnet-b0/blocks_8/tpu_batch_normalization/gamma/Assign"
  input: "^efficientnet/efficientnet-b0/blocks_8/tpu_batch_normalization/moving_mean/Assign"
  input: "^efficientnet/efficientnet-b0/blocks_8/tpu_batch_normalization/moving_variance/Assign"
  input: "^efficientnet/efficientnet-b0/blocks_8/tpu_batch_normalization_1/beta/Assign"
  input: "^efficientnet/efficientnet-b0/blocks_8/tpu_batch_normalization_1/gamma/Assign"
  input: "^efficientnet/efficientnet-b0/blocks_8/tpu_batch_normalization_1/moving_mean/Assign"
  input: "^efficientnet/efficientnet-b0/blocks_8/tpu_batch_normalization_1/moving_variance/Assign"
  input: "^efficientnet/efficientnet-b0/blocks_8/tpu_batch_normalization_2/beta/Assign"
  input: "^efficientnet/efficientnet-b0/blocks_8/tpu_batch_normalization_2/gamma/Assign"
  input: "^efficientnet/efficientnet-b0/blocks_8/tpu_batch_normalization_2/moving_mean/Assign"
  input: "^efficientnet/efficientnet-b0/blocks_8/tpu_batch_normalization_2/moving_variance/Assign"
  input: "^efficientnet/efficientnet-b0/blocks_9/conv2d/kernel/Assign"
  input: "^efficientnet/efficientnet-b0/blocks_9/conv2d_1/kernel/Assign"
  input: "^efficientnet/efficientnet-b0/blocks_9/depthwise_conv2d/depthwise_kernel/Assign"
  input: "^efficientnet/efficientnet-b0/blocks_9/se/conv2d/bias/Assign"
  input: "^efficientnet/efficientnet-b0/blocks_9/se/conv2d/kernel/Assign"
  input: "^efficientnet/efficientnet-b0/blocks_9/se/conv2d_1/bias/Assign"
  input: "^efficientnet/efficientnet-b0/blocks_9/se/conv2d_1/kernel/Assign"
  input: "^efficientnet/efficientnet-b0/blocks_9/tpu_batch_normalization/beta/Assign"
  input: "^efficientnet/efficientnet-b0/blocks_9/tpu_batch_normalization/gamma/Assign"
  input: "^efficientnet/efficientnet-b0/blocks_9/tpu_batch_normalization/moving_mean/Assign"
  input: "^efficientnet/efficientnet-b0/blocks_9/tpu_batch_normalization/moving_variance/Assign"
  input: "^efficientnet/efficientnet-b0/blocks_9/tpu_batch_normalization_1/beta/Assign"
  input: "^efficientnet/efficientnet-b0/blocks_9/tpu_batch_normalization_1/gamma/Assign"
  input: "^efficientnet/efficientnet-b0/blocks_9/tpu_batch_normalization_1/moving_mean/Assign"
  input: "^efficientnet/efficientnet-b0/blocks_9/tpu_batch_normalization_1/moving_variance/Assign"
  input: "^efficientnet/efficientnet-b0/blocks_9/tpu_batch_normalization_2/beta/Assign"
  input: "^efficientnet/efficientnet-b0/blocks_9/tpu_batch_normalization_2/gamma/Assign"
  input: "^efficientnet/efficientnet-b0/blocks_9/tpu_batch_normalization_2/moving_mean/Assign"
  input: "^efficientnet/efficientnet-b0/blocks_9/tpu_batch_normalization_2/moving_variance/Assign"
  input: "^efficientnet/efficientnet-b0/stem/conv2d/kernel/Assign"
  input: "^efficientnet/efficientnet-b0/stem/tpu_batch_normalization/beta/Assign"
  input: "^efficientnet/efficientnet-b0/stem/tpu_batch_normalization/gamma/Assign"
  input: "^efficientnet/efficientnet-b0/stem/tpu_batch_normalization/moving_mean/Assign"
  input: "^efficientnet/efficientnet-b0/stem/tpu_batch_normalization/moving_variance/Assign"
  input: "^pose/locref_pred/block4/biases/Assign"
  input: "^pose/locref_pred/block4/weights/Assign"
  input: "^pose/pairwise_pred/block4/biases/Assign"
  input: "^pose/pairwise_pred/block4/weights/Assign"
  input: "^pose/part_pred/block4/biases/Assign"
  input: "^pose/part_pred/block4/weights/Assign"
}
node {
  name: "init_1"
  op: "NoOp"
}
versions {
  producer: 898
}
